test_rl/bert_predictor_mask_best.pth (torch, 396504 bytes, 3 tensors)

fc1.weight f4 [128, 768]
0	0x3bccf666	0.006254959
1	0xbd7438a7	-0.05962434
2	0xba4fb8e3	-0.00079239736
3	0xbd650a71	-0.05591816
4	0x3d34baf0	0.04412359
5	0xbd1fe2d0	-0.039034665
6	0x3c8348a5	0.01602585
7	0xbb231c6d	-0.002488877
8	0xbcb0a55b	-0.021563223
9	0xbc1d247d	-0.009591219
10	0xbd0248a3	-0.031807553
11	0x3d531df4	0.051542237
12	0x3d2d4639	0.042303298
13	0xbb9f16b6	-0.0048550023
14	0xbcd26cf9	-0.025686728
15	0xbc5a8bf0	-0.013339028
16	0xbd5abe8a	-0.05340437
17	0xbd7a0982	-0.061044224
18	0xbd339673	-0.04384465
19	0x3cca8ce5	0.024725387
20	0x3d1cc6c0	0.03827548
21	0x3ccc1e56	0.024916809
22	0x3bf87a65	0.00758295
23	0x3d273842	0.040825136
24	0xbbaf2ecd	-0.0053461553
25	0x3bfc8d00	0.007707238
26	0xbd4f414a	-0.050599374
27	0x3d3fed4e	0.04685717
28	0xbd50894a	-0.05091218
29	0x3c97c616	0.018527072
30	0x3c9382b3	0.018006658
31	0xbcede0d4	-0.02903787
32	0xbbd90cee	-0.006623856
33	0x3cc5eb6e	0.024160113
34	0x3b022612	0.0019859117
35	0x3c3ef494	0.011654992
36	0x3b8f847d	0.0043798075
37	0xbb2e7215	-0.002661829
38	0x3d3deac8	0.046366483
39	0x3da09ab4	0.07842007
40	0x3cfab5f1	0.030604335
41	0xbd337552	-0.043813057
42	0xbd1b15aa	-0.037862457
43	0xbcf5ea13	-0.030018842
44	0xbcbf5989	-0.023358123
45	0xbc32b4ba	-0.010907346
46	0x3c4f47b6	0.012651375
47	0xbcc66467	-0.024217797
48	0x3d1cbbde	0.0382651
49	0xbd07d8ed	-0.03316586
50	0xbd11f2b0	-0.035631835
51	0x3b6bdf90	0.0035991408
52	0xbcba0689	-0.022708194
53	0x3b7dcb0f	0.0038725769
54	0xbd1f72c0	-0.038927794
55	0x3d155ab7	0.036463466
56	0xbd26620e	-0.040620856
57	0x3cf7bb88	0.030240789
58	0x3d3be1e1	0.04586971
59	0x3d1dee99	0.038557623
60	0x3d4e76bf	0.050406214
61	0xbd79fa61	-0.061029796
62	0x3c382515	0.01123931
63	0xbcd07699	-0.025447177
64	0x3c7d6341	0.0154655585
65	0xbb626c74	-0.0034549506
66	0xbbf92858	-0.0076036863
67	0xbd21b521	-0.03947938
68	0x3d01cada	0.031687595
69	0xbc654811	-0.013994233
70	0xbd39bb00	-0.045344353
71	0x3a00d1b7	0.00049140624
72	0x3bfe0923	0.007752554
73	0x3d84bb79	0.0648107
74	0x3d1a3898	0.03765163
75	0xbb9a507b	-0.004709301
76	0xbce4fa46	-0.02795137
77	0x3d293d56	0.04131826
78	0xba16c2de	-0.00057510834
79	0xbc1d7acf	-0.009611799
80	0x3c8414c7	0.016123189
81	0xbb407ba4	-0.002937057
82	0xbd1e2bfe	-0.038616173
83	0x3d794460	0.060856223
84	0x3d56fde6	0.05248823
85	0x3bbcf691	0.0057666977
86	0x3d71b52d	0.059010673
87	0x3c1510bc	0.009098228
88	0xbd5b3e09	-0.05352596
89	0x3d235df1	0.03988451
90	0x3b9326c9	0.0044907075
91	0x3d27ee4b	0.04099874
92	0xbd6e8cce	-0.05823975
93	0x3d004a9a	0.031321146
94	0x3c906938	0.017628297
95	0xbd09c4a9	-0.033634815
96	0xbb8ca910	-0.0042926148
97	0xbc55368a	-0.013013491
98	0x3bbdbdfe	0.005790471
99	0x3c5503ba	0.013001377
100	0xbd749ea0	-0.05972159
101	0xbc833502	-0.016016487
102	0x3d48397c	0.048882946
103	0x3d3bd12c	0.04585378
104	0x3d16d736	0.036826335
105	0x3ceff8c9	0.029293435
106	0x3c75c8dd	0.015001503
107	0xbcc2ae36	-0.02376471
108	0x3d166f26	0.036727093
109	0x3c454d59	0.012042367
110	0x3cf3e817	0.029773755
111	0xbbf87c46	-0.007583174
112	0xbb5da412	-0.0033819717
113	0x3d428f00	0.047499657
114	0x3b430711	0.002975885
115	0x3d2669ff	0.04062843
116	0xbc22d5aa	-0.009938637
117	0x3a822ff9	0.000993251
118	0x3d301e3e	0.04299759
119	0xbd3b7a20	-0.045770764
120	0x3d16251f	0.036656495
121	0xbbec3f17	-0.0072096693
122	0xbb93537d	-0.0044960366
123	0x3bb57fe7	0.005538929
124	0xbc166c55	-0.009181102
125	0xbd003246	-0.031297944
126	0x3ac70235	0.0015183153
127	0x3d2cf4fa	0.042225815
128	0x3be19f7a	0.006885466
129	0xbd70069b	-0.05860005
130	0xbb1fe143	-0.002439574
131	0xbbb02c10	-0.0053763464
132	0xbd104ff5	-0.035232503
133	0xbcee7cbb	-0.02911221
134	0xbc8f5443	-0.017496234
135	0xbd0063bd	-0.031345118
136	0x3c40b423	0.011761698
137	0x3c408181	0.011749626
138	0x3c47c0a5	0.012191926
139	0x3c72dcf1	0.014823184
140	0x3d40470a	0.046942748
141	0x3d1a4320	0.03766167
142	0x3d05ca63	0.032663714
143	0xbd6ce0ba	-0.057831503
144	0x3c77bb54	0.015120346
145	0xbd66b4cc	-0.056324765
146	0x3837f00b	4.3854157e-05
147	0xbbac0f74	-0.0052508656
148	0xbd3d3311	-0.04619128
149	0xbcd7379b	-0.026271632
150	0xbd2e0113	-0.042481493
151	0x3b1c93a7	0.0023891719
152	0xbd787117	-0.060654726
153	0xbc63f18c	-0.01391257
154	0xbcaf3c27	-0.021390988
155	0xbbb99f45	-0.0056647384
156	0x3bf7afe8	0.0075588115
157	0xbce5ec81	-0.028066875
158	0xbd64eecc	-0.055891797
159	0xba1e0b5d	-0.0006028915
160	0xbca525a1	-0.020159544
161	0xbd5945f3	-0.053045224
162	0xbd08573a	-0.03328631
163	0xbd37f0fa	-0.044907548
164	0xbcf234b2	-0.029566143
165	0x3d114377	0.03546473
166	0xbd80f4cd	-0.06296692
167	0x3c48b085	0.012249117
168	0xbd722230	-0.059114635
169	0x3c0b59b6	0.0085052755
170	0xbc361ef0	-0.0111157745
171	0xbcde5e88	-0.027144685
172	0xbb95a1a9	-0.0045663905
173	0xbca09e54	-0.019606747
174	0x3d1f341f	0.038868066
175	0x3b35819f	0.0027695668
176	0xbd5de63a	-0.05417464
177	0x3d14dc01	0.036342625
178	0xbd1cee54	-0.038313225
179	0xbcb43a1a	-0.022000361
180	0xbd2ae412	-0.04172141
181	0xbc407a2c	-0.011747878
182	0xbd9813e7	-0.07425671
183	0xbb8a05a7	-0.0042120996
184	0x3c9a5186	0.018837702
185	0x3cd96abe	0.026540156
186	0xbc4c0167	-0.012451506
187	0x3c77b1f3	0.01511811
188	0xbd459553	-0.04823811
189	0xbc9b8b24	-0.018987246
190	0xbc977421	-0.018487992
191	0x3d2ffaed	0.04296391
192	0x3ce0f027	0.027458264
193	0xbc233096	-0.009960314
194	0x3c8c4be1	0.017126026
195	0xbd53d279	-0.051714394
196	0x3d065492	0.032795496
197	0xbcfe65c9	-0.031054394
198	0x3d025aef	0.031825002
199	0xba609503	-0.00085671264
200	0x3d3e856b	0.046513956
201	0x3d1e435a	0.03863845
202	0xbca5c63e	-0.02023613
203	0xbd639a0b	-0.05556683
204	0xbd0521d3	-0.03250296
205	0xbb4cb28c	-0.0031234352
206	0xbc2cc3e8	-0.010544755
207	0xbd0af972	-0.033929296
208	0x3cb3cc6c	0.021948062
209	0x3d19a1f7	0.037507977
210	0xbcc1babd	-0.023648614
211	0x3c838d97	0.016058726
212	0xbd49e85c	-0.04929386
213	0x3bd98aa6	0.0066388426
214	0xbc83db3b	-0.016095748
215	0x3bed4c33	0.0072417497
216	0xbc125e0b	-0.008933554
217	0xbc981e38	-0.018569097
218	0x3b565182	0.003270239
219	0x3d2a8603	0.04163171
220	0xbd170537	-0.036870208
221	0x3bc17f8e	0.0059050983
222	0xbbad3e25	-0.005286949
223	0x3cfd2210	0.030900031
224	0x3d043a76	0.032282315
225	0x3c6f5c15	0.014609356
226	0x3c8c3b22	0.01711804
227	0xb8660d20	-5.4848497e-05
228	0x3bd6d85d	0.006556554
229	0xbd5f1586	-0.054463886
230	0xbc4353fe	-0.011921881
231	0xbd7a8c71	-0.06116909
232	0xbc85e0d0	-0.01634255
233	0x3d1012cd	0.03517418
234	0x3cc2f312	0.023797546
235	0xbd594e41	-0.053053144
236	0xbc44accf	-0.012004091
237	0x3bd06bb6	0.0063604964
238	0x3d15111e	0.036393277
239	0x3c0113d9	0.007878267
240	0x3cce3128	0.025169924
241	0xbd73afaf	-0.059493717
242	0xbcd1e420	-0.025621474
243	0xbd618463	-0.055057894
244	0xbc9888e6	-0.018619966
245	0x3c9d0c06	0.019170772
246	0x3cddfb93	0.027097499
247	0xbce59cf7	-0.028028948
248	0xbd067a92	-0.032831736
249	0xbd47b29b	-0.048754316
250	0xbd2aec1d	-0.04172908
251	0xbd15c53e	-0.036565058
252	0xbce7e161	-0.028305711
253	0x3ca4ea36	0.020131212
254	0x3bb7a6b9	0.0056045917
255	0xbbd6316b	-0.006536653

fc1.bias f4 [128]
0	0xbce2db2a	-0.027692396
1	0x3cbe109d	0.023201281
2	0xbce0c516	-0.027437728
3	0xba67b72d	-0.0008839246
4	0xbcf57f86	-0.029968034
5	0x3be55a73	0.006999308
6	0xbd705964	-0.058679
7	0xbd246c47	-0.040142324
8	0x3ceecb88	0.029149786
9	0x3c58613c	0.013206776
10	0xbcc50b71	-0.024053307
11	0x3cbb5157	0.022865934
12	0xbb5f5506	-0.0034077778
13	0xbd1418eb	-0.036156576
14	0x3c08dbaf	0.008353158
15	0xbce1567b	-0.027507057
16	0xbd20ec53	-0.039287876
17	0xbc91bed4	-0.01779119
18	0xbd3f28f9	-0.046669934
19	0xbcb9418b	-0.022614261
20	0xbd0a2ccc	-0.033734128
21	0xbd722c26	-0.059124134
22	0x3ce4332a	0.027856428
23	0xbcf686ac	-0.030093513
24	0xba797550	-0.0009516077
25	0xbcac32ea	-0.021020371
26	0xbaef7706	-0.0018269725
27	0xba50221a	-0.0007939652
28	0xbd0e11af	-0.034684833
29	0xbd8c733a	-0.06857915
30	0x3c4f883f	0.012666761
31	0x3c31045a	0.01080426
32	0x3ba0cfd3	0.004907587
33	0xbc595734	-0.01326542
34	0xbd133b6d	-0.035945345
35	0xbd0671c4	-0.03282334
36	0xbd024aac	-0.031809494
37	0xbc905402	-0.017618183
38	0xbbf97ffe	-0.007614135
39	0x3c829e91	0.015944751
40	0x3cc8f5ef	0.024531333
41	0x3c2ac198	0.010422133
42	0xbb995255	-0.004679004
43	0xbd63451a	-0.055485822
44	0xbbfe9cef	-0.007770173
45	0xbc9b3fa7	-0.01895125
46	0x3ae09448	0.0017134035
47	0x3cf01640	0.029307485
48	0xbb4fc038	-0.0031700265
49	0xbcb77b29	-0.022397595
50	0xbca09e76	-0.01960681
51	0xbcf5eab6	-0.030019145
52	0x3bf682a1	0.0075228964
53	0xbcbcedd9	-0.023062633
54	0x3c3bfaa4	0.011473332
55	0xbd399303	-0.045306217
56	0xbcd36531	-0.025805088
57	0xbcc9c6a1	-0.024630846
58	0xbd1f08f1	-0.038826887
59	0x3cf6d521	0.030130925
60	0x3bfc0be7	0.0076918486
61	0xbca1af58	-0.01973693
62	0xbd0031bb	-0.031297427
63	0xbc3e1388	-0.011601336
64	0xbc2d8bdb	-0.010592426
65	0xbd2388d8	-0.039925426
66	0xbd159800	-0.03652191
67	0xbd1ac90a	-0.037789382
68	0x3c9f5c64	0.019453235
69	0xbd80e3fd	-0.06293485
70	0xbc86e53d	-0.016466731
71	0x3e322405	0.17396553
72	0xbc10c527	-0.008836067
73	0xbcde40b2	-0.027130459
74	0xbb653be8	-0.0034978334
75	0x3895b40e	7.1384115e-05
76	0xbd178858	-0.036995262
77	0x3b926a3e	0.0044682315
78	0x3e614e5b	0.22002546
79	0xbcfc0d0a	-0.030767936
80	0xbb1c1610	-0.0023816861
81	0xbd2b4dde	-0.041822307
82	0xbd23077c	-0.03980206
83	0xbd003464	-0.031299964
84	0xbb325cf2	-0.0027216044
85	0xbd2d4cc4	-0.042309538
86	0xbc978214	-0.018494643
87	0xbc2be9bb	-0.010492737
88	0x3bc97d20	0.0061489493
89	0xbc8ba53e	-0.017046567
90	0x3a436d8a	0.0007454982
91	0x3dafa2bb	0.0857596
92	0x3bb5c9df	0.0055477466
93	0xbd8f5a34	-0.06999627
94	0x3c2b876a	0.010469297
95	0xbcc150ee	-0.02359816
96	0xbd015f90	-0.031585276
97	0x3c13cab9	0.009020501
98	0xbb93fb90	-0.0045160726
99	0xbc904a69	-0.017613607
100	0xbc8b8778	-0.01703237
101	0x3c77dc44	0.015128199
102	0xbce392c0	-0.027779937
103	0xbc942443	-0.018083697
104	0x3c9753bf	0.01847255
105	0xbd85e6af	-0.0653814
106	0x3bf1294b	0.007359659
107	0x3c399287	0.011326439
108	0x3c00b254	0.007855017
109	0x3c59c0d9	0.013290607
110	0xbcfd52ef	-0.030923335
111	0xbca67bfd	-0.020322794
112	0xbce6e834	-0.028186895
113	0xbd2430a4	-0.04008545
114	0x3bda20e2	0.006656752
115	0xbd01cd12	-0.03168971
116	0xbd811341	-0.063025005
117	0xbd00c90b	-0.03144173
118	0x3c1937cd	0.009351683
119	0x3c13fc92	0.009032385
120	0xbc36cb7a	-0.011156911
121	0x3948cf50	0.00019150716
122	0xbcd9e6f8	-0.026599392
123	0xbcb6f106	-0.022331726
124	0xbd3887f2	-0.045051523
125	0xbd34d4f9	-0.04414842
126	0xbd0a9344	-0.03383185
127	0xbc503cb1	-0.012709782

fc2.weight f4 [1, 128]
0	0xbc10b421	-0.008832009
1	0xbd73d34c	-0.05952768
2	0xbd4e8e03	-0.0504284
3	0xbb9c9d54	-0.004779497
4	0xbd5eda23	-0.05440725
5	0xbe364eeb	-0.17803542
6	0xbbbd4278	-0.005775746
7	0x3d3068eb	0.043068808
8	0x3e92f837	0.28704998
9	0x3adaedd9	0.0016702964
10	0xbd6e1057	-0.05812105
11	0x3dd8500f	0.10562145
12	0x3e826fbe	0.25475878
13	0xbccea4d4	-0.02522508
14	0xbbbde9d2	-0.005795696
15	0xbc508502	-0.012727024
16	0xbba6f0ad	-0.0050946088
17	0xbe3b79e4	-0.18308216
18	0x3c726ab9	0.0147959525
19	0xbd771708	-0.0603247
20	0xbe9c3dac	-0.30515802
21	0xbb840df1	-0.0040299823
22	0x3edb13d1	0.42788556
23	0xbd9bafbb	-0.07601877
24	0x3d3aadb9	0.04557583
25	0x3df19325	0.11795644
26	0xbc8f072b	-0.017459473
27	0xbb08014d	-0.0020752728
28	0xbd05bdb6	-0.032651626
29	0x3c1094ad	0.00882451
30	0xbc9a0f42	-0.018806104
31	0xbb927d66	-0.004470515
32	0xbd2a447d	-0.04156922
33	0x3cd8d4b8	0.02646862
34	0xbd11affa	-0.035568215
35	0xbd644738	-0.055731982
36	0x3bd528c7	0.006505105
37	0x3d939337	0.072058134
38	0x3d9fcf78	0.078032434
39	0x3e5c1299	0.2149147
40	0x3d137744	0.036002412
41	0xbe46270e	-0.19350836
42	0x3e214a82	0.15751079
43	0x3c8b44ec	0.017000638
44	0xbc5b55fc	-0.0133871995
45	0xbbeaa1bb	-0.007160393
46	0xbd0f5e6a	-0.03500215
47	0xbd92aec4	-0.0716224
48	0x3e0dc038	0.13842857
49	0x3ca7c053	0.02047745
50	0xbb84e290	-0.0040553287
51	0x3c635270	0.013874635
52	0xbce6b35d	-0.028161699
53	0xbc7c098f	-0.015383138
54	0xbc4499f2	-0.011999594
55	0x3e01c5ec	0.12673157
56	0xbd827b20	-0.063711405
57	0xbd80c01b	-0.06286641
58	0x3f48e6b9	0.78477055
59	0xbdb7e637	-0.08979457
60	0xbb43d958	-0.0029884186
61	0xb9ec328d	-0.0004505109
62	0xba7e238c	-0.0009694628
63	0xbc9a6f87	-0.018852009
64	0x3d957fe5	0.072997846
65	0x3dc72046	0.097229525
66	0x3cb02cbb	0.021505704
67	0xbc2f1424	-0.010685954
68	0xbe1536b4	-0.14571649
69	0xbca0a677	-0.019610627
70	0xbbde4629	-0.006783266
71	0xbf29c84f	-0.6632127
72	0xbb0a4736	-0.0021099574
73	0xba5809e8	-0.0008241222
74	0x3d931038	0.07180828
75	0x3efdf713	0.49602565
76	0xbbec9791	-0.0072202166
77	0x3d82c122	0.063844934
78	0xbf2e68cb	-0.6812865
79	0x3ec3ac61	0.38217452
80	0xbcccb7e4	-0.02499003
81	0xbc1198e9	-0.008886554
82	0x3ba0da3e	0.004908829
83	0xbdce4441	-0.10071612
84	0xbe1dc669	-0.15407719
85	0xbd1e04fa	-0.038578965
86	0x3e3d5ac5	0.18491657
87	0x3d9c02b6	0.076177046
88	0xbe02b576	-0.12764534
89	0x3c1f6839	0.009729438
90	0xbca15bf0	-0.01969716
91	0xbdbfc650	-0.09363997
92	0xbd214d11	-0.039380137
93	0xbc52e058	-0.0128708705
94	0xbced90cf	-0.028999714
95	0x3e1a48ae	0.15066788
96	0x3e242592	0.16029957
97	0x3d335041	0.043777708
98	0xbca7b794	-0.020473279
99	0xbb76cf11	-0.0037660042
100	0x3d4b3244	0.049608484
101	0x3c386a12	0.011255758
102	0xbd800760	-0.06251407
103	0xbc20dae5	-0.0098178135
104	0x3d91c4c1	0.07117606
105	0x3c14030c	0.00903393
106	0x39dfb71b	0.000426703
107	0x3f137438	0.5759921
108	0x3de657b6	0.11247198
109	0xbe1194d4	-0.1421693
110	0xba91ec9a	-0.0011133135
111	0x3ca55efe	0.020186897
112	0xba9808b2	-0.0011599271
113	0x3cd983c6	0.026552092
114	0xbcc42fb0	-0.02394852
115	0x3af61a47	0.0018776142
116	0x3c15e421	0.009148628
117	0x3e0b40b8	0.13598907
118	0xbc0da9e0	-0.008646458
119	0xbd1e8bed	-0.038707662
120	0xbcc47bd5	-0.023984829
121	0x3e2319fe	0.15927884
122	0x3d779e8c	0.060453936
123	0xbb14ee80	-0.0022725165
124	0xbdbecd32	-0.09316482
125	0x3d9ecb34	0.07753602
126	0x3ddd3f47	0.10803085
127	0xbb63e9b4	-0.003477675
