test_rl/bert_predictor_2.pth (torch, 431458 bytes, 6 tensors)

fc1.weight f4 [128, 768]
0	0x3b86fcd2	0.004119494
1	0x3cc8a20e	0.024491336
2	0xbc2379c0	-0.009977758
3	0x3c67193b	0.0141051365
4	0xbd12e47a	-0.035862423
5	0x3ccb3dcb	0.024809739
6	0x3c9a3d25	0.018827984
7	0xbcbd55c5	-0.023112187
8	0xbd12d2f2	-0.035845704
9	0xbd0ec0c8	-0.03485182
10	0x3c5c2ca5	0.013438378
11	0xbd273945	-0.0408261
12	0xbc96b057	-0.018394632
13	0x3c4f4638	0.012651019
14	0x3c07cadb	0.008288111
15	0x3c6833f2	0.014172541
16	0xbcfaeff5	-0.030631999
17	0xbd1d0e97	-0.038343992
18	0x3cd0a2e7	0.025468303
19	0x3c454da6	0.012042439
20	0x3c0cc5bd	0.008592066
21	0xbced575f	-0.028972326
22	0xbc892ed6	-0.016745966
23	0xbc84054c	-0.016115807
24	0xbcd997b0	-0.026561588
25	0x3cbd455f	0.023104368
26	0x3b1e0d5c	0.002411685
27	0x3c6c8714	0.014436502
28	0xbbaa4f42	-0.0051974365
29	0xbd26c87b	-0.040718537
30	0x3ccc8ab1	0.024968477
31	0x3be672b2	0.0070327157
32	0x3c9cd7e2	0.01914591
33	0xbcac4d86	-0.02103306
34	0x3bcbde48	0.0062215663
35	0xbbee0866	-0.0072641848
36	0x3c4aa15e	0.0123675745
37	0xbc31927d	-0.010838148
38	0xbd2b5317	-0.041827288
39	0x3c8b7f71	0.017028542
40	0xbd0fadb1	-0.035077754
41	0xbcb47646	-0.022029053
42	0xbcad6780	-0.021167517
43	0x3c37c36b	0.011216025
44	0xbc4683fc	-0.012116428
45	0xbbebe35f	-0.0071987356
46	0xbc72768f	-0.014798774
47	0x3cef88fd	0.029240126
48	0x3c54063c	0.0129409395
49	0x3ba1032b	0.0049137077
50	0xbcd5ac7d	-0.026083225
51	0x3b5d9b3e	0.0033814455
52	0xbc63c9d4	-0.0139031
53	0xb9f7dc3c	-0.000472756
54	0xbc891e54	-0.016738094
55	0xbc609b50	-0.013708904
56	0x3d1bb546	0.038014673
57	0xbcfef7c2	-0.031124
58	0xbc001f1d	-0.007819918
59	0xbc5763d1	-0.013146357
60	0xbcc7c6c0	-0.024386764
61	0x3cd14d9f	0.025549708
62	0x3c565056	0.013080677
63	0x3c8699d6	0.016430777
64	0x3c91ec13	0.017812764
65	0x3c98983f	0.018627284
66	0xbc9f5895	-0.019451419
67	0xbc043323	-0.008068833
68	0xbceda649	-0.029009955
69	0x3be88a64	0.0070965756
70	0x3cd01e03	0.025404936
71	0x3ba6ef13	0.005094418
72	0xbbac2b0f	-0.0052541564
73	0xbd1c82e7	-0.038210776
74	0x3c82abdb	0.015951088
75	0x3cc6801b	0.024231007
76	0xbcabddc7	-0.020979775
77	0xbd03448b	-0.03204779
78	0xbbfc3a01	-0.0076973443
79	0x3cc87e3a	0.024474252
80	0xbc0de746	-0.008661097
81	0xbba53798	-0.0050420277
82	0xbbb8f340	-0.005644232
83	0xba06dbdc	-0.0005144456
84	0xbbf94c04	-0.0076079387
85	0x3c9579fc	0.018246643
86	0xbc79c778	-0.015245311
87	0xbd25c4fa	-0.040471055
88	0xbcd0e385	-0.025499115
89	0xbd286fa7	-0.041122105
90	0xbc410583	-0.011781099
91	0xbd0e7f40	-0.034789324
92	0x3c773025	0.015087162
93	0x3cb69dc5	0.022292027
94	0x3c6cdf49	0.014457532
95	0x3b7f6960	0.003897272
96	0xbcae09f7	-0.021244986
97	0xbd2619a9	-0.040551815
98	0xbd247baf	-0.040157016
99	0xbc99a2fe	-0.018754479
100	0xbd28a7e7	-0.04117575
101	0x3a216641	0.00061568996
102	0x3c268784	0.010164145
103	0x3ce3270c	0.02772858
104	0x3cb4415f	0.022003828
105	0xbbe1d63d	-0.0068919943
106	0x3ca71c9e	0.020399388
107	0xbc14bacd	-0.00907774
108	0x3c14d425	0.009083782
109	0xbcfc85f3	-0.03082559
110	0xbbcb0f8b	-0.006196921
111	0x3c9d96a3	0.019236868
112	0xbd0d44c3	-0.034489404
113	0xbbda8de9	-0.006669749
114	0x3c4d2806	0.012521749
115	0x3c0c7c61	0.008574576
116	0x3c1913d2	0.009343104
117	0x3ae21ff6	0.0017251957
118	0x3ca84496	0.020540517
119	0xbd03cc6a	-0.032177366
120	0xbbd25dfc	-0.006419895
121	0xbc815153	-0.015785849
122	0x3ca6b653	0.02035061
123	0x3c47b068	0.012188055
124	0x3ccd2083	0.025039917
125	0xbc8aed16	-0.016958755
126	0x3b338e4b	0.0027398046
127	0xbca47613	-0.020075833
128	0xbc1a70f3	-0.009426343
129	0xbcd66b12	-0.026174102
130	0xbb8cbdca	-0.0042950856
131	0xbc71a8fd	-0.014749763
132	0x3c1d9b91	0.009619609
133	0xbbcaa599	-0.0061842916
134	0xbcca756e	-0.024714198
135	0xbd16af6a	-0.03678838
136	0xbccdb511	-0.025110753
137	0x3cd0f9bb	0.025509706
138	0x3c24bcfd	0.010054824
139	0x3cc8186b	0.024425706
140	0x3d26534e	0.04060679
141	0xbccdf09b	-0.025139144
142	0x3b8bb9dd	0.0042641
143	0xbd24dbfe	-0.040248863
144	0x3c83d966	0.016094875
145	0xbce8b7aa	-0.02840789
146	0xbceeb915	-0.029140988
147	0xbc517c4f	-0.012785985
148	0xbcd54d02	-0.026037697
149	0x3c4b2208	0.01239825
150	0x3d198cad	0.037487675
151	0x3bbd339d	0.005773975
152	0x3a6b8a7a	0.0008985173
153	0xbd09f31a	-0.033679105
154	0x3cb37f11	0.021911176
155	0x3d0e5a6f	0.034754213
156	0x3c817eec	0.015807591
157	0xbce8e6ce	-0.028430369
158	0x3c300938	0.010744385
159	0xbb7d7e36	-0.0038679964
160	0x3b451c01	0.0030076506
161	0xbcaaa5dc	-0.020831041
162	0xbc9f34f6	-0.019434433
163	0xbce0f4a8	-0.027460411
164	0x3cbf4855	0.02334992
165	0x3c3f4131	0.011673258
166	0xb97e6fa3	-0.00024264916
167	0x3ced0298	0.0289319
168	0x3ac4b1c2	0.0015006589
169	0xbce58b1c	-0.028020434
170	0xbd1fc991	-0.039010588
171	0xbc489e26	-0.012244737
172	0xbc488498	-0.012238644
173	0x3c3464b7	0.01101034
174	0xb9ebd296	-0.00044979592
175	0x3ce9e69d	0.028552348
176	0xbc2fb9ce	-0.010725452
177	0x3c949b86	0.018140566
178	0xba68216c	-0.0008855078
179	0x3ccfc8bd	0.025364274
180	0xbc088c5c	-0.0083342455
181	0xbcaf2336	-0.021379095
182	0xbcf51fbd	-0.02992236
183	0x3cae8241	0.021302344
184	0x3c57daf2	0.013174759
185	0xbbf6a94f	-0.0075275074
186	0xbc17964d	-0.009252143
187	0x3ce9603f	0.028488277
188	0x3bb05450	0.0053811446
189	0xbd24e6b2	-0.04025907
190	0xbc4d4dda	-0.012530768
191	0xbc528903	-0.012850049
192	0xbd2971c8	-0.041368276
193	0xbd0cd82e	-0.034385853
194	0xbcc98946	-0.02460159
195	0x3c133337	0.008984379
196	0xbd0f9a2d	-0.035059143
197	0xbcbed847	-0.023296488
198	0x3ac13547	0.0014740609
199	0xbb2f32a2	-0.002673306
200	0x3ce63eec	0.028106175
201	0xbcc845b5	-0.024447301
202	0xbb9c5558	-0.004770916
203	0x3c851e5e	0.016249832
204	0x3ca9ab92	0.020711694
205	0x3cf07653	0.029353296
206	0xbd05d3b0	-0.032672584
207	0xbcab40b9	-0.020904886
208	0x3cd253ba	0.02567469
209	0xbca43088	-0.020042673
210	0x3bd78bea	0.0065779584
211	0xbcebc40b	-0.028780004
212	0x3cd1c2e8	0.025605634
213	0xbcaab2df	-0.020837246
214	0xbbd24c3c	-0.0064177793
215	0xbcb23912	-0.021755729
216	0x3bcb4c61	0.0062041734
217	0xba8a8ca5	-0.001057048
218	0x3bb9c61a	0.0056693675
219	0x3b27cdd2	0.0025604856
220	0xbccc9e07	-0.024977697
221	0xbd17933c	-0.037005648
222	0xbcef599c	-0.029217534
223	0xbcd50557	-0.026003523
224	0xbce029d1	-0.02736369
225	0xbd128c07	-0.03577807
226	0x3bfa02eb	0.0076297424
227	0xbcb6f01c	-0.02233129
228	0x3cbfaa9b	0.02339678
229	0x3c1c2627	0.009530581
230	0x3cc07d6b	0.023497304
231	0x3c3669aa	0.011133591
232	0x3cab9ca4	0.020948716
233	0xbb142691	-0.0022605995
234	0xbc555271	-0.013020144
235	0xbc5c848a	-0.013459334
236	0xbca6e0cb	-0.020370862
237	0x3ca8d126	0.020607542
238	0x3c51d852	0.012807922
239	0xbcdd8ff0	-0.027046174
240	0xbcdf332d	-0.027246082
241	0xbc8fda31	-0.017560096
242	0x3c64e8cf	0.0139715215
243	0x3c9ac019	0.018890427
244	0x3cc9443a	0.024568666
245	0xbb54548a	-0.0032399022
246	0xbc6bc5f8	-0.014390461
247	0x3c3037dd	0.010755506
248	0xbcbad3b0	-0.022806019
249	0xbc867c9e	-0.016416844
250	0xbd1c0443	-0.03809
251	0xbd1b35c4	-0.03789307
252	0x3cf097b2	0.029369209
253	0xbc7a24ef	-0.015267595
254	0xbb766488	-0.0037596542
255	0xbc80c199	-0.015717315

fc1.bias f4 [128]
0	0x3cac08f8	0.02100037
1	0x3c678e02	0.014132978
2	0x3caf4998	0.021397397
3	0x3d801d5b	0.06255599
4	0xbba9c832	-0.005181336
5	0x3cf3addb	0.029745987
6	0xbc214622	-0.009843381
7	0x3cf40c0c	0.0297909
8	0xbbc5ef72	-0.006040507
9	0xbd104db7	-0.035230365
10	0x3c4b31ca	0.012402007
11	0x3baf26ca	0.0053452
12	0xbd14022e	-0.03613489
13	0xbcd97578	-0.026545271
14	0xbc9cbb1b	-0.019132188
15	0xbcaa9642	-0.020823602
16	0xbc959cb9	-0.018263208
17	0xbc745792	-0.0149134565
18	0x3d6f48fa	0.058419205
19	0x3b1b753c	0.0023721
20	0xbd062b9f	-0.032756444
21	0xbc3221eb	-0.0108723445
22	0xbc19bc70	-0.009383306
23	0xbcb643c5	-0.022249112
24	0xbcbfb363	-0.023400968
25	0x3cd9b6c6	0.026576411
26	0x3c64cad6	0.0139643755
27	0x3cce24de	0.025164064
28	0xbccc3c3c	-0.024931066
29	0x3b3d0ffe	0.0028848643
30	0xbc0c8811	-0.008577363
31	0x3a66d1bc	0.00088050566
32	0x39a45534	0.00031344
33	0x3c8092cb	0.015694996
34	0xbc0706bf	-0.0082413545
35	0x3cae3b93	0.021268642
36	0x3c28df12	0.01030709
37	0xbcce4934	-0.02518139
38	0x3b47c0ad	0.0030479834
39	0x3c009aec	0.007849436
40	0x3cbb239f	0.022844134
41	0x3c85bacc	0.016324423
42	0x3c4cafaf	0.012493058
43	0xbc1ea05f	-0.00968179
44	0xbc950b08	-0.018193737
45	0xbd13504f	-0.03596526
46	0x3b98a05c	0.004657788
47	0xbcd02605	-0.025408754
48	0xbd16129a	-0.036638834
49	0x3c2465b8	0.010034017
50	0x3caaf6dd	0.020869667
51	0xbc0e57bc	-0.00868791
52	0x3b9b4c57	0.004739325
53	0xba6d4623	-0.00090512837
54	0xbd2ac06c	-0.041687414
55	0x3d533492	0.051563807
56	0xbc9aca8b	-0.018895408
57	0xbcdee518	-0.02720885
58	0xbcd8679e	-0.026416596
59	0x3d0026a3	0.031286847
60	0xbc9a3ec1	-0.018828752
61	0xbc7bd8a9	-0.01537148
62	0xbd075ac0	-0.03304553
63	0x3c11ff2b	0.008910934
64	0x3d432883	0.047646057
65	0xbd0c12b5	-0.034197528
66	0x3ccb0e82	0.024787191
67	0x3cd9b324	0.026574679
68	0x3cf300bc	0.029663436
69	0x3bb02ded	0.0053765685
70	0xbcd2fecf	-0.025756268
71	0x3bbbe419	0.0057339785
72	0x3be8a475	0.007099683
73	0xbd0265ed	-0.031835485
74	0x3c9d9baa	0.019239265
75	0x3cdb6c8b	0.026785156
76	0xbc49bec2	-0.012313547
77	0xbc85cd3a	-0.016333211
78	0xbc91261d	-0.01771837
79	0xbd1c3fb9	-0.03814671
80	0x3cd7d565	0.026346872
81	0xbd16c5d3	-0.036809754
82	0x3ce24b88	0.027623907
83	0xbcde4cd1	-0.027136238
84	0x3c09e3a8	0.008416094
85	0xbc09bd15	-0.008406897
86	0xbcaddc4b	-0.021223208
87	0xbc6263e1	-0.013817758
88	0x3cf572bb	0.029961934
89	0x3c9ceb8b	0.019155284
90	0x3cd5fa68	0.02612038
91	0x3d0e82cd	0.03479271
92	0x3bfefa6d	0.007781318
93	0x3c8bce76	0.017066222
94	0xbb61ea24	-0.0034471834
95	0x3cf2faf8	0.029660687
96	0x3ce8640c	0.028368019
97	0x3cbd22f2	0.023087952
98	0xb9ac2d3a	-0.00032840093
99	0xbbe37b5f	-0.006942197
100	0x3c64dfab	0.013969342
101	0xbd0f81e6	-0.03503599
102	0xbd3a8137	-0.045533385
103	0x3b9d1c10	0.004794605
104	0xbb7c3572	-0.0038484004
105	0xbc4d3490	-0.012524739
106	0x3bd40a26	0.0064709364
107	0xbb10cb56	-0.0022093854
108	0xbbe5eabe	-0.007016509
109	0xbc9006bf	-0.017581342
110	0xbcdd2c6d	-0.026998723
111	0xbd0eb569	-0.034840975
112	0xbc416848	-0.011804648
113	0xbc3a5525	-0.011372839
114	0xbcf601f4	-0.030030228
115	0x3cbd0b71	0.023076745
116	0xbcb39672	-0.021922324
117	0xbd11935f	-0.035540935
118	0xbcbd2fff	-0.023094175
119	0x3c583654	0.013196547
120	0x3c583253	0.013195592
121	0xbd04ff15	-0.032469828
122	0xbd098711	-0.033576075
123	0xbd02110a	-0.03175453
124	0xbc8b4ebd	-0.017005319
125	0xbb38fcd7	-0.0028226876
126	0x3cac9371	0.0210664
127	0xbd1e0269	-0.038576517

fc2.weight f4 [64, 128]
0	0xbb770605	-0.0037692797
1	0x3d87590d	0.06608782
2	0x3d2f2b38	0.042765826
3	0x3e2725af	0.16322969
4	0x3bc7e568	0.0061003454
5	0xbd65f8c9	-0.056145463
6	0xbd2eabb5	-0.04264422
7	0xbd0bf427	-0.03416839
8	0xbd924607	-0.07142263
9	0x3d77032b	0.060305756
10	0x3d9a283e	0.07527207
11	0xbd4761af	-0.048677143
12	0x3d04e120	0.03244126
13	0xbca6264b	-0.020281931
14	0xbd975149	-0.07388551
15	0xbda38777	-0.07984822
16	0x3d92415f	0.07141375
17	0xbd5ebd17	-0.05437955
18	0xbed69301	-0.4190903
19	0xbc22a0f5	-0.00992607
20	0x3d32c944	0.043648973
21	0xbd6f736c	-0.058459684
22	0x3d827192	0.06369318
23	0xbb0fe6d9	-0.0021957664
24	0xbc8a49e0	-0.01688093
25	0xbd6b36f6	-0.05742546
26	0x3d6bdd8e	0.057584338
27	0x3c856394	0.016282834
28	0xbda6c979	-0.081438966
29	0xbcff0d4a	-0.031134266
30	0x3b96bb15	0.0045999386
31	0xbd97fc38	-0.07421154
32	0xbd65533b	-0.055987578
33	0x3cca5727	0.02469976
34	0x3c204b79	0.009783619
35	0x3d665f0c	0.056242988
36	0x3d8a223e	0.067448124
37	0x3d7ee73c	0.06223224
38	0xbd3f8d70	-0.046765745
39	0xbd5cabf6	-0.053874932
40	0xbda63517	-0.08115595
41	0x3dd9050c	0.10596666
42	0xbbf6cb78	-0.0075315796
43	0xbdbb018b	-0.09131154
44	0xbeb60712	-0.3555227
45	0xbbf9d913	-0.007624754
46	0x3dae9ce6	0.0852602
47	0xbc2bf1e2	-0.010494681
48	0xbd0154e9	-0.031575117
49	0x3d5d694e	0.054055505
50	0x3cf99a09	0.030468957
51	0xbc0e8d62	-0.0087007005
52	0xbba1e727	-0.0049408856
53	0x3d26fb86	0.040767215
54	0x3d889014	0.06668106
55	0xbdb91ab4	-0.09038296
56	0xbd0d85b3	-0.034551334
57	0xbd9cfbaa	-0.076651886
58	0x3d9fd4cb	0.07804259
59	0x3c92e104	0.017929561
60	0xbc8e2d8c	-0.017355703
61	0x3a9d626c	0.0012007481
62	0x3d472f97	0.04862937
63	0x3dac771d	0.084211566
64	0x3d44eed9	0.048079345
65	0xbd435f7c	-0.047698483
66	0xbdb1aeac	-0.08675894
67	0xbda0c386	-0.07849793
68	0x3dce0d64	0.10061148
69	0x3b5342b5	0.0032235805
70	0x3d0b9f85	0.034087677
71	0xbdb16eb6	-0.086636946
72	0x3c894355	0.01675574
73	0x3cf71a95	0.030164042
74	0x3daef363	0.08542516
75	0xbd59aba9	-0.053142224
76	0xbce21d76	-0.027601939
77	0x3d982cac	0.074303955
78	0x3cdf507a	0.027260054
79	0xbd6366db	-0.055518012
80	0x3cc30526	0.023806166
81	0x3d8e5482	0.06949712
82	0x3db4e0a8	0.08831912
83	0x3c7df3c6	0.015500015
84	0xbc5ac878	-0.01335346
85	0xbda50404	-0.080574065
86	0x3d1a732e	0.0377075
87	0x3c8a782b	0.016903004
88	0x3dd15c53	0.102226876
89	0xbdafa6b5	-0.08576719
90	0xbc943470	-0.01809141
91	0x3ed4d390	0.4156766
92	0x3d58c376	0.05292078
93	0x3d45deda	0.04830823
94	0x3d808d7e	0.062769875
95	0x3d5b5dda	0.0535563
96	0xbf57a561	-0.84236723
97	0x3d1e603b	0.03866599
98	0x3cb63819	0.022243546
99	0xbd849fd9	-0.06475801
100	0x3db34634	0.087536246
101	0xbd2678bf	-0.040642496
102	0xbe156dee	-0.14592716
103	0x3c0b61a8	0.00850717
104	0xbd63f9aa	-0.05565802
105	0xbc302325	-0.010750567
106	0x3cad171c	0.021129183
107	0x3d1b48cd	0.037911225
108	0x3cdcd842	0.026958589
109	0x3d5b4fe5	0.05354299
110	0xbc05734a	-0.008145163
111	0xbc57f7b5	-0.013181617
112	0x3d9f34ad	0.07773719
113	0xbcf033b6	-0.029321533
114	0xbc6364e0	-0.013879031
115	0xbd8f90c6	-0.07010035
116	0x3dade712	0.08491339
117	0x3da3ede7	0.08004361
118	0xbd4e7be6	-0.050411128
119	0xbd4b8707	-0.04968932
120	0xbe07c9bb	-0.13260548
121	0x3ba1054d	0.004913962
122	0xbe5049db	-0.20340674
123	0x3c9c6349	0.019090312
124	0xbbdea34f	-0.0067943702
125	0xbd92e93c	-0.07173392
126	0xbd91b883	-0.07115271
127	0xbdca4e32	-0.09878196
128	0x3d5e2c8e	0.05424171
129	0xbde31893	-0.110886715
130	0x3d7b7c26	0.061397694
131	0x3db2dc86	0.08733468
132	0x3c9a80a3	0.018860167
133	0x3d81a90d	0.06331072
134	0x3d859676	0.06522839
135	0xbd9bc2b3	-0.07605495
136	0x3d6805ad	0.056646038
137	0x3d680e10	0.056654036
138	0x3d15a37c	0.036532864
139	0xbce526a3	-0.027972525
140	0x3cc7cf8d	0.02439096
141	0xbd1fe7a0	-0.039039254
142	0x3d39d488	0.0453687
143	0xbb87a683	-0.004139723
144	0x3c803807	0.015651716
145	0xbd543bd2	-0.05181486
146	0xbe14d82d	-0.1453559
147	0xbd0be213	-0.034151148
148	0x3d7e562c	0.0620939
149	0xbd8e44ab	-0.06946691
150	0x3cf12c14	0.029439963
151	0xbcc743ca	-0.024324317
152	0xbdd59d81	-0.10430432
153	0xbd012de1	-0.031537894
154	0xbe048f47	-0.12945281
155	0xbd2af46b	-0.041737
156	0xbd90c937	-0.07069629
157	0x3da318d8	0.07963723
158	0x3b1faad6	0.00243633
159	0x3d0d8ec5	0.034559984
160	0x3c9d14e0	0.019174993
161	0x3c27baf8	0.010237448
162	0xbc7bb5e1	-0.0153631875
163	0x3c9cc79a	0.019138146
164	0xbba326ad	-0.0049789757
165	0x3c3dc877	0.011583439
166	0xbd8358d5	-0.06413428
167	0xbd88e2d2	-0.066838875
168	0xbc5bb57b	-0.0134099675
169	0xbd658f29	-0.05604473
170	0x3c9df129	0.019280033
171	0x3cf34520	0.029696047
172	0xbdef98b9	-0.116990514
173	0xbd6bfa05	-0.057611484
174	0x3d5fa26d	0.05459826
175	0xbcf929ac	-0.030415379
176	0x3d2aa9ff	0.041666027
177	0xbd604665	-0.054754633
178	0x3d14a65d	0.03629147
179	0x3a0d1a8d	0.00053826795
180	0xbcaa645b	-0.020799806
181	0xbd077358	-0.033068985
182	0xbd58e083	-0.052948486
183	0xbc9b4317	-0.01895289
184	0xbd0797dc	-0.03310381
185	0x3c9ea12a	0.019363958
186	0x3dab284a	0.08357294
187	0x3d7f97b2	0.062400527
188	0xbd672ec4	-0.056441084
189	0xbd6bca01	-0.057565693
190	0x3d4429f0	0.047891557
191	0xbdaf69c4	-0.08565095
192	0x3d1643c5	0.036685724
193	0x3cf6f44b	0.030145785
194	0xbd7517e7	-0.05983725
195	0x3b70188c	0.0036635725
196	0xbd90956c	-0.0705975
197	0x3d90dfa7	0.07073908
198	0x3adb9538	0.0016752845
199	0xbd4138d3	-0.047173332
200	0xbd0ff13c	-0.03514217
201	0xbda4a6a5	-0.080395974
202	0xbd7f2749	-0.062293325
203	0xbdaa8875	-0.08326808
204	0x3d46196f	0.0483641
205	0xbca714fa	-0.020395745
206	0xbe05c995	-0.13065179
207	0x3dac6c70	0.0841912
208	0xbd1045d0	-0.03522283
209	0x3d94caad	0.0726522
210	0x3da0f6b0	0.07859552
211	0xbd1ba665	-0.038000483
212	0xbd933b3e	-0.07189034
213	0xbd00719a	-0.03135834
214	0xbd469ed5	-0.048491318
215	0xbc81e9dc	-0.015858583
216	0xbdde1f99	-0.108458705
217	0xbd68d0fb	-0.056839924
218	0xbc48702e	-0.012233777
219	0xbce8162f	-0.02833089
220	0x3ce3f6a0	0.02782756
221	0xbc82b55a	-0.015955616
222	0xbc6b1fc2	-0.014350833
223	0x3cc131b9	0.02358328
224	0xbd157476	-0.03648802
225	0xbc58ef97	-0.013240716
226	0xbd47e992	-0.048806734
227	0xbca275bf	-0.019831536
228	0xbda34626	-0.07972364
229	0x3d55ae88	0.0521684
230	0x3c0420da	0.008064473
231	0x3c8d6e41	0.017264487
232	0xbd422e31	-0.047407333
233	0x3d6b4e84	0.057447925
234	0x3d4f14fa	0.050557114
235	0x3d2793c8	0.04091242
236	0xbda7ffba	-0.08203073
237	0xbcd14504	-0.025545605
238	0x3d946bfd	0.0724716
239	0xbd669acc	-0.05629997
240	0xbdb237f8	-0.087020814
241	0xbd2eefde	-0.042709224
242	0xbc5c26cc	-0.013436984
243	0xbca89ce4	-0.020582624
244	0xbc18b2da	-0.009319985
245	0xbcacdff5	-0.021102885
246	0x3d28d877	0.041222062
247	0xbd043d3c	-0.03228496
248	0xbdec419c	-0.115359515
249	0x3c81eee6	0.015860986
250	0xbe026168	-0.1273247
251	0xbda4274b	-0.08015307
252	0xbd37e936	-0.04490014
253	0xbcd497e3	-0.025951331
254	0x3c689483	0.014195564
255	0xbd02af5f	-0.03190553

fc2.bias f4 [64]
0	0xbe312941	-0.17300893
1	0xbdd51312	-0.10404028
2	0xbd9dd640	-0.077068806
3	0x3ce4ee8d	0.027945781
4	0xbca8fcff	-0.02062845
5	0xbe94de4a	-0.29075843
6	0x3d8c4415	0.06848923
7	0xbe4819cf	-0.19541095
8	0x3e7f778f	0.24947952
9	0xbe5aba66	-0.21360168
10	0xbde14f57	-0.11001461
11	0xbe7c101f	-0.24615525
12	0xbe965c44	-0.29367268
13	0xbe0164d3	-0.12636118
14	0xbae664a8	-0.0017577605
15	0xbdfca986	-0.123370215
16	0x3e25a0e8	0.16174662
17	0xbdf91de7	-0.121639065
18	0xbec49d5d	-0.3840131
19	0xbd995fdb	-0.07488986
20	0xbdd26774	-0.10273638
21	0xbd574351	-0.052554432
22	0x3d8a8a15	0.06764618
23	0xbb9a075f	-0.0047005857
24	0x3eb83160	0.3597517
25	0xbec97b59	-0.3935192
26	0xbdcd1c51	-0.100151666
27	0x3f24715a	0.6423546
28	0xbf0979d6	-0.5370153
29	0xbe1408fb	-0.14456551
30	0x3ed4227f	0.41432568
31	0xbc7a07b0	-0.015260622
32	0xbdb881a8	-0.09009105
33	0x3ef5913a	0.47962362
34	0xbf2f43c8	-0.684628
35	0xbd05f3fb	-0.03270338
36	0x3d9f7f49	0.077879496
37	0xbf5f30d9	-0.8718391
38	0xbe2b3c3f	-0.16722201
39	0x3f1ce1c0	0.6128197
40	0xbd539f57	-0.05166563
41	0x3b86de63	0.004115866
42	0xbdd0f0f1	-0.10202206
43	0x3ef1798e	0.4716305
44	0xbf2472ed	-0.6423786
45	0xbde482e5	-0.11157779
46	0x3f1ab615	0.60434085
47	0xbec38300	-0.38185883
48	0xbdd61778	-0.10453695
49	0xbe190493	-0.14943151
50	0xbd916411	-0.07099164
51	0xbef3ac42	-0.4759236
52	0x3f036757	0.5132956
53	0x3ef7432f	0.48293445
54	0x3da4a500	0.08039284
55	0x3e44f613	0.19234495
56	0xbca921bb	-0.020645967
57	0xbddbeb1f	-0.10738205
58	0xbea4b4a8	-0.3216908
59	0xbe671bfd	-0.2256927
60	0xbee9da36	-0.45674294
61	0xbda052c0	-0.07828283
62	0xbd81bdc9	-0.06335027
63	0xbeef91d2	-0.4679094

fc3.weight f4 [8, 64]
0	0xbd4176b1	-0.047232334
1	0xbd75e4ee	-0.060032777
2	0x3cedbefb	0.02902173
3	0xbe90f2a3	-0.28310117
4	0xbd1bb842	-0.03801752
5	0xbec7912a	-0.3897794
6	0xbdfd47bb	-0.12367197
7	0x3dd030c1	0.10165549
8	0xbe00865a	-0.12551251
9	0x3e00363e	0.12520692
10	0xbe7e1d20	-0.24815798
11	0xbe904744	-0.2817937
12	0xbf87bd86	-1.0604713
13	0x3d0b41c7	0.033998277
14	0xbeca9d19	-0.3957298
15	0xbedd00ee	-0.43164772
16	0xbda66697	-0.08125036
17	0xbdfe457d	-0.124155976
18	0x3f27c62f	0.6553678
19	0xbbfb4097	-0.007667612
20	0x3d076bdf	0.03306186
21	0xbd6a6a3a	-0.05723021
22	0xbe5ea886	-0.21743974
23	0x3db53fe4	0.08850077
24	0xbe278f51	-0.16363265
25	0x3d7ac861	0.061226252
26	0xbe427798	-0.18990934
27	0x3defff86	0.11718659
28	0x3dff4d58	0.12465924
29	0xb9f2bac0	-0.00046296977
30	0x3e02a1f9	0.127571
31	0xbcbb4135	-0.022858242
32	0x3c868d99	0.01642494
33	0x3e5fc54c	0.21852607
34	0xbecbcb97	-0.39803764
35	0xbdd414ce	-0.10355531
36	0xbdc1fa50	-0.094715714
37	0x3ddea092	0.1087047
38	0xbcc32f25	-0.023826191
39	0x3df246ee	0.11829935
40	0x3dae73f3	0.08518209
41	0xbe734485	-0.23756607
42	0xbdd693c1	-0.104774006
43	0xbe8b3699	-0.27190092
44	0x3f07fc85	0.5311969
45	0xbf359b41	-0.70940024
46	0x3e5a66aa	0.21328226
47	0x3e50f1d3	0.20404749
48	0xbcf95531	-0.03043613
49	0xbde25438	-0.1105122
50	0xbd522037	-0.051300254
51	0xbf67cb39	-0.9054447
52	0xbe916be7	-0.28402635
53	0xbdf5cc70	-0.12001884
54	0xbd9172d0	-0.07101977
55	0x3db35f2e	0.087583885
56	0xbe100a06	-0.14066324
57	0x3e2d3c13	0.16917448
58	0x3ea7c696	0.32768697
59	0x3e0a5fa6	0.1351305
60	0x3e0f7d4f	0.14012645
61	0xbd71c9bc	-0.05903028
62	0xbe059d8f	-0.13048385
63	0x3e4128d8	0.18863237
64	0x3ea22399	0.31667784
65	0xbdd5e89f	-0.104447596
66	0xbe4970ce	-0.19671938
67	0x3df144da	0.117807105
68	0xbe40157a	-0.18758193
69	0xbf261c5a	-0.6488701
70	0xbf9db3cf	-1.2320498
71	0x3d942025	0.072326936
72	0xbeab1b11	-0.33419088
73	0x3ee6a551	0.45048
74	0xbf3e8e66	-0.7443603
75	0xbe243289	-0.16034903
76	0x3f02e71d	0.511339
77	0xbde41eb4	-0.11138669
78	0xc0014ac4	-2.0201883
79	0xbc16792b	-0.009184162
80	0xbe12ed42	-0.14348319
81	0x3c7af451	0.015317039
82	0xbf59683f	-0.8492469
83	0xbc61cb92	-0.013781445
84	0x3ddd7be5	0.10814647
85	0xbd52dda3	-0.0514809
86	0x3e1ae1bd	0.15125175
87	0x3d8bb94a	0.068224505
88	0xbd78b98a	-0.06072382
89	0xbcc530ff	-0.024071215
90	0x37c60f87	2.361067e-05
91	0xbf360828	-0.71106195
92	0x3df47038	0.119354665
93	0xbc59518c	-0.013264071
94	0xbd9ae2fd	-0.07562826
95	0xbb66103d	-0.0035104894
96	0xba8de1fa	-0.0010824793
97	0xbe8cf09c	-0.2752732
98	0x3f676113	0.903825
99	0xbda073ef	-0.078346126
100	0x3ec51e5d	0.38499728
101	0x3df0f977	0.11766332
102	0xbc0c4a22	-0.0085625965
103	0x3f4d7069	0.8024965
104	0x3d5dc34b	0.054141324
105	0x3e90c5fb	0.28276047
106	0x3db7f313	0.089819096
107	0x3e5402c6	0.20704183
108	0xbf944ccc	-1.1585937
109	0x3d20b090	0.039230883
110	0xbf28a1ad	-0.658717
111	0x3e164649	0.14675249
112	0x3d39e697	0.045385923
113	0xbca4ec77	-0.020132286
114	0xbd0b2dee	-0.03397935
115	0x3cbb2bb3	0.022847986
116	0x3e19a662	0.15004876
117	0xbf6be950	-0.9215288
118	0x3dfb1917	0.12260645
119	0xbebd47d3	-0.3696886
120	0xbd69f94d	-0.057122517
121	0x3df4aecd	0.11947403
122	0xbe96a1f8	-0.29420447
123	0x3de661fb	0.11249157
124	0xbebb1b41	-0.3654423
125	0xbd8e2b36	-0.069418356
126	0xbdcfe1aa	-0.10150464
127	0x3e446787	0.19180118
128	0xbe535bfe	-0.20640561
129	0xbd5e543d	-0.054279555
130	0x3d030410	0.031986296
131	0xbea86f55	-0.3289744
132	0xbe0000f4	-0.12500364
133	0x3e390fc9	0.18072428
134	0xbdd680e1	-0.104738005
135	0x3d5cebf1	0.05393595
136	0xbe4304f1	-0.19044854
137	0xbfdf2ccc	-1.7435546
138	0xbcb92d15	-0.022604505
139	0x3bfa65ab	0.0076415143
140	0xbe7ea7e5	-0.24868734
141	0xbd1aa190	-0.037751734
142	0xbe0fb477	-0.14033686
143	0xbca2e2b3	-0.01988349
144	0x3d9046fd	0.0704479
145	0xbd3eeaaf	-0.04661053
146	0xbdf8c224	-0.121464044
147	0x3c4722d3	0.012154299
148	0xbe41be13	-0.18920164
149	0xbd38fd67	-0.04516354
150	0x3dd630dd	0.10458539
151	0xbc965e60	-0.018355548
152	0x3e2f7be7	0.17137109
153	0x3cd62021	0.026138367
154	0xbd23df66	-0.04000797
155	0xbdca12c1	-0.09866858
156	0x3b8420a1	0.00403221
157	0x3cf00162	0.029297534
158	0x3dd694c5	0.10477594
159	0xbc7ad4b1	-0.015309499
160	0xb9cf36f2	-0.00039523054
161	0x3dfad814	0.12248245
162	0x3e011532	0.12605742
163	0xbdfdbbc3	-0.12389328
164	0xbeb4655f	-0.3523359
165	0xbc6b0c51	-0.014346198
166	0xbca31db2	-0.01991162
167	0xbed2b4b6	-0.41153497
168	0x3c484179	0.012222641
169	0xbd36095b	-0.044442516
170	0xbdd988d9	-0.10621805
171	0x3ea07649	0.31340244
172	0xbdda42ac	-0.10657248
173	0x3e9270db	0.28601727
174	0xbf390c5b	-0.7228448
175	0xbebf17d5	-0.3732287
176	0x3c47809f	0.012176662
177	0xbd5c5db5	-0.053800303
178	0xbd38ef17	-0.04514989
179	0x3dd842d2	0.1055962
180	0x3e9267db	0.2859486
181	0xbdd4bede	-0.103879675
182	0x3e33b820	0.17550707
183	0x3d32f129	0.04368702
184	0xbde540db	-0.11194011
185	0xbe8821d3	-0.26588306
186	0xbe3091d5	-0.1724313
187	0xbe77f195	-0.2421325
188	0x3e7f9e54	0.24962741
189	0x3d3674db	0.044545036
190	0xbd68b6e4	-0.056815043
191	0x3da26c5e	0.07930826
192	0xbd97c0c2	-0.074098125
193	0x3c888164	0.01666326
194	0xbe8408d0	-0.25787973
195	0xbe75e9a6	-0.24014911
196	0xbd298c20	-0.0413934
197	0x3d709777	0.058738198
198	0xbe90fe18	-0.28318858
199	0xbdcde0ac	-0.100526184
200	0xbf02f003	-0.5114748
201	0xc0bfb39b	-5.9906745
202	0xbded6576	-0.11591618
203	0xbef45a07	-0.47724935
204	0xc0623ea2	-3.5350728
205	0x3ccad5a6	0.024760079
206	0x3db098b6	0.08622877
207	0x3ab549aa	0.0013831158
208	0xbd60d5d5	-0.054891426
209	0xbd8b1790	-0.067916036
210	0xbf828421	-1.0196573
211	0x3d0651fd	0.032793034
212	0xbf942c6d	-1.1576058
213	0xbe3d311a	-0.18475762
214	0x3d8323cc	0.06403312
215	0xbdde21a1	-0.10846258
216	0x3f1a82ab	0.60355633
217	0xbedbd8e7	-0.4293892
218	0xbe6d4710	-0.2317164
219	0xbdff6fce	-0.12472497
220	0xbecb45c1	-0.39701656
221	0xbc6ee71b	-0.014581467
222	0xbddbec4b	-0.10738429
223	0x3cba6edc	0.02275794
224	0x3c011c67	0.007880307
225	0xbe6875fd	-0.22701259
226	0xbfb29093	-1.395037
227	0xbe1be7af	-0.15225099
228	0xbe9ff31b	-0.31240162
229	0xbf34f366	-0.70683897
230	0xbc3d1de1	-0.011542768
231	0xbe53f9d9	-0.20700778
232	0xbd99e7ab	-0.0751489
233	0xbeb6e34a	-0.35720283
234	0xbdce37f6	-0.100692675
235	0xbe1013a2	-0.1406999
236	0xbf3c0b56	-0.734548
237	0xbe37d2be	-0.17951486
238	0xbeb604b1	-0.35550454
239	0xbec437f9	-0.38323954
240	0x3db7eff6	0.08981316
241	0xbd88a12e	-0.066713676
242	0x3dd46c21	0.103721865
243	0x3f1dcf01	0.6164399
244	0xbe8029db	-0.25031933
245	0x3d428f8b	0.047500174
246	0x3dcb3803	0.09922793
247	0x3dffc141	0.12488032
248	0x3d8ce0ac	0.0687879
249	0xbecd063a	-0.40043813
250	0x3f006faa	0.50170386
251	0x3df65cf7	0.120294504
252	0xc022974e	-2.540485
253	0x3c136e75	0.008998503
254	0x3d470e76	0.048597775
255	0xbe193b97	-0.14964138

fc3.bias f4 [8]
0	0x3e7fe5df	0.24990033
1	0xbea8bef4	-0.32958186
2	0x3dbc32f1	0.09189404
3	0xbeab9dad	-0.33518735
4	0xbef483c4	-0.4775678
5	0xbd83a105	-0.064271964
6	0xbd999af2	-0.075002566
7	0x3e912830	0.28350973
