test_rl/bert_predictor.pth (torch, 396360 bytes, 3 tensors)

fc1.weight f4 [128, 768]
0	0x3c098cb7	0.008395365
1	0xbc552110	-0.013008371
2	0xbc10af4e	-0.008830858
3	0xbcb78232	-0.02240095
4	0x3c5b8086	0.013397342
5	0xbb8effb4	-0.0043639783
6	0xbca27739	-0.01983224
7	0xbd1dab19	-0.03849325
8	0xbc6c96a0	-0.014440209
9	0x3cd8d759	0.026469873
10	0x3c7be144	0.015373532
11	0xbcf138ba	-0.029445995
12	0xbd2ac695	-0.04169329
13	0x3c70a4de	0.014687745
14	0x3c579b5f	0.013159602
15	0xbcae4fa1	-0.021278204
16	0x3c026897	0.0079595065
17	0x3c6624f0	0.0140468925
18	0x3ca0e8fc	0.019642346
19	0x3c801c24	0.015638418
20	0xbd280ae8	-0.041026026
21	0x3b813cae	0.003944001
22	0xbc11d5cb	-0.00890107
23	0xbb1a5b9d	-0.002355314
24	0xbc5ce6f3	-0.013482797
25	0xbc2a1d05	-0.010382895
26	0xbcd12e4c	-0.025534771
27	0xbd16ae71	-0.036787454
28	0x3cc14be4	0.023595758
29	0x3b3142b5	0.0027047817
30	0xbca73cb1	-0.020414682
31	0xbcdda736	-0.027057271
32	0xbd1bfb60	-0.038081527
33	0xbcb50cd3	-0.022100842
34	0x3c7a8d50	0.015292481
35	0xbd0bf2b4	-0.034167007
36	0xbc362403	-0.011116984
37	0x3c983f3b	0.018584838
38	0x3c9daa56	0.019246262
39	0xbd1e31ef	-0.03862184
40	0xbbc0a3af	-0.0058788876
41	0x3ccd6dec	0.025076829
42	0x3ca84939	0.020542728
43	0xb886d3d8	-6.429077e-05
44	0xbcd7cc13	-0.026342427
45	0xbd0391f0	-0.0321216
46	0xbc8815c1	-0.016611936
47	0xbc940741	-0.018069865
48	0x3cbcfd39	0.023069965
49	0x3bf61f64	0.0075110663
50	0xbc99d5a1	-0.018778624
51	0x3c86fca6	0.016477894
52	0xbc472449	-0.012154647
53	0x3c5b327a	0.013378734
54	0x3cdd8deb	0.02704521
55	0xbc9f3358	-0.019433662
56	0x3d092d0b	0.033490222
57	0x3bee3a4e	0.007270134
58	0x3ba68e1e	0.0050828597
59	0xbd039220	-0.032121778
60	0xbbeb470d	-0.007180101
61	0x3cdb6d0f	0.026785402
62	0x3cb61eae	0.022231426
63	0x3ced4e5d	0.02896803
64	0x3c068d8e	0.00821246
65	0x3c353024	0.011058841
66	0xbc0b2c65	-0.008494471
67	0xbca69fc4	-0.020339854
68	0x3c130bc4	0.008974973
69	0x3c2b2d31	0.010447786
70	0xb9dd0367	-0.0004215494
71	0x3bad6d9e	0.0052926084
72	0xbc7cd0f6	-0.01543068
73	0x3c950e60	0.018195331
74	0xbc8ca1b9	-0.01716696
75	0xbd1c2357	-0.03811964
76	0xb92a69e6	-0.00016251914
77	0x3c94bed3	0.018157398
78	0x3cb65398	0.022256657
79	0x3babd520	0.0052439123
80	0xbc20b62f	-0.009809061
81	0x3c98044e	0.01855674
82	0xbc03a29d	-0.0080343755
83	0x3c9fbac5	0.019498238
84	0xba92947a	-0.0011183165
85	0xbcccabd2	-0.024984274
86	0xbc08be84	-0.008346204
87	0xbc33f033	-0.010982561
88	0x3d23a5cb	0.039953034
89	0xbd014639	-0.03156111
90	0xbd02dacb	-0.03194694
91	0xbd2dfc76	-0.042477094
92	0xbbb828bf	-0.0056200917
93	0xbd17c9fd	-0.037057865
94	0x3cb108da	0.021610666
95	0xbc93a720	-0.018024027
96	0xbc9d217f	-0.019181011
97	0x3c745394	0.014912505
98	0xbca6a672	-0.02034304
99	0x3c96d921	0.018414082
100	0xbcaed439	-0.02134143
101	0xbad0a7a0	-0.0015919097
102	0xbc26384e	-0.01014526
103	0xbd1e715b	-0.038682323
104	0x3acbade3	0.0015539493
105	0x3c58caef	0.013231977
106	0xbc7963d7	-0.015221558
107	0xbcba9f34	-0.022780992
108	0xbaffea88	-0.0019524852
109	0xbce00b9d	-0.027349288
110	0xbd13244b	-0.035923284
111	0xbbea0a52	-0.0071423436
112	0xbd058b97	-0.032603826
113	0x398c8332	0.0002680063
114	0xbadc1a1e	-0.0016792451
115	0xbc7d0605	-0.01544333
116	0xbb754d52	-0.003743012
117	0x3c853d9d	0.016264731
118	0xbd127a81	-0.03576136
119	0xbb8f71d8	-0.004377585
120	0x3d08c7e8	0.03339377
121	0x38da2b0b	0.000104030674
122	0xbd1d02b0	-0.03833264
123	0xbc2832af	-0.01026599
124	0x3a68242c	0.00088554877
125	0xbbda69cb	-0.0066654435
126	0xbcff45a6	-0.03116114
127	0xbc17f59a	-0.009274865
128	0xbc814892	-0.015781675
129	0x3c550969	0.013002732
130	0x39e1a327	0.00043036902
131	0x3c51a274	0.0127950795
132	0xbbc12948	-0.0058948137
133	0x3c9bc544	0.019014962
134	0xbb188472	-0.0023272303
135	0xbb0967ee	-0.0020966488
136	0xbd1664be	-0.03671717
137	0x3a2e915e	0.00066592346
138	0xbcdf3b0f	-0.027249841
139	0x3c89d465	0.01682491
140	0xbc505750	-0.012716129
141	0xbd0f164a	-0.034933366
142	0x3b37a647	0.0028022693
143	0x3bac7a11	0.005263575
144	0x3b8a7450	0.0042252913
145	0x3ced51ab	0.028969606
146	0xbd0134dd	-0.031544555
147	0x3caf6664	0.021411128
148	0xbbc5119c	-0.006014062
149	0xbd12b4d4	-0.035816982
150	0xbb34d568	-0.002759302
151	0x3c147a10	0.009062305
152	0xbcd6126c	-0.026131831
153	0x3ad42c59	0.0016187533
154	0xbce85280	-0.028359652
155	0xbc81d334	-0.01584778
156	0x3ca954bb	0.020670285
157	0x3b2ee394	0.002668594
158	0xbcd7f3c7	-0.02636136
159	0xbb4e60b1	-0.0031490738
160	0x3ca518f0	0.020153493
161	0x3ca2a43d	0.019853706
162	0xbd056bae	-0.032573394
163	0x3be689ca	0.0070354687
164	0x3c5a5997	0.013327024
165	0xbd191474	-0.03737302
166	0xbaa04bf3	-0.0012229666
167	0xbd22a898	-0.039711565
168	0xbcf03d8a	-0.02932622
169	0x3ca53e24	0.020171233
170	0x3bde2a08	0.006779913
171	0xbc161816	-0.009161016
172	0x3d073e56	0.033018433
173	0xbd15d2e7	-0.036578085
174	0xba3ddf06	-0.0007243011
175	0xbce84ab9	-0.028355943
176	0xbc3f029d	-0.011658338
177	0xbcb961fa	-0.022629727
178	0x3c9c015b	0.019043615
179	0xbd2bd88c	-0.041954562
180	0xbcfc163f	-0.030772327
181	0xbc96b893	-0.018398559
182	0xbc86ada0	-0.016440213
183	0x3cb166d1	0.021655472
184	0xba907166	-0.0011020123
185	0xbcecbf09	-0.028899686
186	0xbcf3929e	-0.029732998
187	0xbd100075	-0.035156686
188	0xbd256683	-0.040380966
189	0xbd11b85f	-0.03557622
190	0x3cd068e3	0.025440639
191	0xbd04c1fc	-0.03241156
192	0xbcfdceb9	-0.030982362
193	0x3bf537e9	0.0074834717
194	0xbce464df	-0.02788013
195	0x3c251db0	0.010077879
196	0xbc9960da	-0.01872294
197	0xbc0dc1db	-0.008652176
198	0xbc84f9c7	-0.016232384
199	0x3ce05b7f	0.027387379
200	0x3ca8752e	0.020563688
201	0xbd28d99d	-0.041223157
202	0xbcd256d9	-0.025676178
203	0xbcfca778	-0.030841574
204	0xbc22f76e	-0.009946687
205	0xbc882c8c	-0.016622804
206	0xbcc7ae6c	-0.024375163
207	0xbcc730e0	-0.024315298
208	0x3c80a77b	0.01570486
209	0xbbf9d721	-0.0076245223
210	0xbd228ae2	-0.03968323
211	0x3c9f9336	0.019479375
212	0x3c30c7ba	0.010789806
213	0x3bf98a38	0.007615354
214	0xbcc5bd8b	-0.024138233
215	0x3b1be380	0.0023786724
216	0xbd03240c	-0.0320168
217	0xbcfc0ec9	-0.030768769
218	0xbce0288e	-0.027363088
219	0xbcbe33e2	-0.023218099
220	0x3d188d0e	0.037243895
221	0x3ce983d2	0.02850524
222	0xbcb7c309	-0.022431867
223	0x3c908f27	0.017646385
224	0x3cacb0f6	0.021080475
225	0x3c51dee3	0.012809488
226	0xbd00e583	-0.03146888
227	0xbc255df6	-0.010093203
228	0x3cb1d450	0.021707684
229	0xbc55c464	-0.013047311
230	0x3bbac191	0.0056993444
231	0xbc9e96cc	-0.019359015
232	0xbd12d8da	-0.035851337
233	0xbc93c398	-0.018037602
234	0xbc969282	-0.018380407
235	0x3c9247ef	0.017856566
236	0x3ce54685	0.027987728
237	0x3b49ef90	0.0030812956
238	0xbce23063	-0.027610963
239	0xbce4feea	-0.027953584
240	0x3cbe0500	0.023195744
241	0xbcb1c2d3	-0.021699345
242	0x3bc6a760	0.006062433
243	0x3c97e35b	0.018541029
244	0xbc29b251	-0.010357455
245	0xbbb0ab09	-0.0053914827
246	0x3b61467d	0.003437429
247	0xbcdd9a6d	-0.027051175
248	0xbc313d39	-0.010817819
249	0x3c1e0802	0.009645464
250	0x3cbbddbb	0.022932878
251	0x3c193f5a	0.009353483
252	0xbca445ac	-0.020052753
253	0x3ccbe25c	0.02488821
254	0xbd114702	-0.03546811
255	0xbd1b099c	-0.03785096

fc1.bias f4 [128]
0	0xbcba992f	-0.022778122
1	0x3d044668	0.032293707
2	0xbc4336cd	-0.011914921
3	0xbd0c4ae6	-0.034251116
4	0xbbef2ae0	-0.0072988123
5	0xbc0e5617	-0.008687518
6	0x3d69cc6e	0.057079725
7	0xbce85d8e	-0.028364923
8	0x3c8c26dc	0.017108373
9	0x3ca034b5	0.019556383
10	0xbc293b89	-0.010329136
11	0x3cc0f566	0.023554515
12	0xb9d18188	-0.00039960095
13	0xbd10e9d6	-0.035379253
14	0x3d13a13d	0.03604244
15	0x3d3a2173	0.045442056
16	0xbd264bb0	-0.040599525
17	0xbcce0527	-0.025148941
18	0x3c144845	0.0090504335
19	0x3baa9e2c	0.005206844
20	0xbc071e0c	-0.00824691
21	0x3c72f413	0.0148287
22	0x3c48faa0	0.012266785
23	0xbc326ec8	-0.01089067
24	0xbd0a53d2	-0.033771344
25	0x3c9ff160	0.019524276
26	0xbbb17534	-0.005415583
27	0x3cabd3e4	0.02097506
28	0xbc52300d	-0.012828839
29	0xbd041963	-0.032250773
30	0x3ccc8ee1	0.024970474
31	0x3bd9a397	0.006641816
32	0xbca2337b	-0.019799938
33	0x3c3fd49f	0.011708408
34	0xbc3155e1	-0.010823698
35	0xbcafa681	-0.0214417
36	0xbd0e6fc7	-0.034774568
37	0x3bfbe6ec	0.00768744
38	0xbd2c9120	-0.04213059
39	0xbd0dd45c	-0.03462635
40	0xbd2dd16a	-0.04243604
41	0xbd056e2d	-0.032575775
42	0xbcdca66a	-0.026934821
43	0xbb246bde	-0.0025088708
44	0xbc9bf329	-0.019036846
45	0xbd0cca38	-0.03437254
46	0x3c6f565c	0.014607992
47	0x3bc06c89	0.0058723134
48	0x3d244c50	0.04011184
49	0xbcc0a78d	-0.023517394
50	0x3d4c04cb	0.04980926
51	0x3c54ad94	0.012980837
52	0x3c377390	0.011196986
53	0xbd0846c4	-0.033270612
54	0xbb8da132	-0.0043221945
55	0xbc680e20	-0.014163524
56	0xbcf9dacd	-0.03049984
57	0x3c084901	0.008318187
58	0x3beb30c1	0.007177443
59	0x3ac744ba	0.0015202977
60	0x3ccb9456	0.024851006
61	0x3cb6d9f4	0.022320725
62	0xbbdda056	-0.0067634983
63	0xbcb23ba6	-0.021756958
64	0x3c19d37b	0.0093888
65	0xbca31106	-0.019905578
66	0x3d861015	0.06546036
67	0xbb9145cd	-0.0044333697
68	0xbc5a0ed5	-0.0133092
69	0xbcdd251f	-0.02699524
70	0xbc593ecc	-0.013259601
71	0xbd0a05a8	-0.0336968
72	0xbd29f212	-0.041490622
73	0xbce333ff	-0.027734755
74	0xbc2e5634	-0.01064067
75	0x3d2dc152	0.042420693
76	0xbd08682f	-0.033302482
77	0x3c7e2811	0.015512482
78	0x3d133eae	0.035948448
79	0xbc335e53	-0.010947782
80	0xbd179845	-0.03701045
81	0xbb84f3b1	-0.0040573706
82	0x3cc2a4c0	0.0237602
83	0x3d01ac2f	0.031658348
84	0xbc75f2a5	-0.015011464
85	0xbc67a608	-0.014138706
86	0xbc28bfba	-0.010299617
87	0xbd1efc17	-0.03881463
88	0x3cdefd5f	0.027220426
89	0x3ce1debd	0.02757203
90	0xbd07786d	-0.03307383
91	0x3c6c8917	0.014436982
92	0x3afe86e6	0.0019418865
93	0xbd269b43	-0.040675413
94	0x3c03c49c	0.008042481
95	0xbcdfafa1	-0.027305426
96	0x3c338850	0.010957792
97	0xbc541993	-0.0129455505
98	0x3b87a4cb	0.004139518
99	0xbcb87c11	-0.022520097
100	0xbcb48412	-0.022035632
101	0xba9dd599	-0.0012041806
102	0xbb8d1515	-0.0043054917
103	0x3ab640f6	0.0013904858
104	0x3c0ead5c	0.008708324
105	0xbd3a471a	-0.045477964
106	0x3d03e448	0.032200128
107	0xbccf9fe1	-0.02534479
108	0xbd0a2364	-0.033725157
109	0xba951e7d	-0.0011376884
110	0xbcb36b16	-0.021901648
111	0x3c50469d	0.012712148
112	0x3ca63e01	0.020293238
113	0x3d999445	0.07498983
114	0xbcc85d6d	-0.024458611
115	0x3ca63c1c	0.020292334
116	0x3d00a9bd	0.031411875
117	0x3d5aa558	0.05338034
118	0xbceec97d	-0.029148811
119	0xbb6ea203	-0.0036412484
120	0xbbff1767	-0.007784772
121	0xbca4c42b	-0.020113071
122	0x3cbed428	0.023294523
123	0xbcedb84f	-0.02901855
124	0xbc3db727	-0.011579311
125	0xbb0e706f	-0.0021734496
126	0x3cd151c0	0.025551677
127	0xbc9ebd65	-0.01937742

fc2.weight f4 [1, 128]
0	0x39c2ab88	0.00037130364
1	0xbb247f37	-0.002510024
2	0xba33cc1e	-0.0006858724
3	0xbd141e8e	-0.03616195
4	0x3e2e3cca	0.17015377
5	0xbe1dbeaa	-0.15404764
6	0xbd8a945e	-0.0676658
7	0xbd239e02	-0.03994561
8	0x3dd95966	0.106127545
9	0x3e5017a0	0.20321512
10	0xbd4d490c	-0.05011849
11	0x398d8ffc	0.00027000892
12	0xbd24b275	-0.040209252
13	0xbcbeaa88	-0.023274675
14	0x3da2c2cb	0.0794731
15	0xbc1d2550	-0.0095914155
16	0x3dc48231	0.095951445
17	0x3ca98f6b	0.02069827
18	0x3ddf8846	0.10914664
19	0x3da14f72	0.07876481
20	0x3b7b45ae	0.0038341093
21	0xbe50f7e3	-0.20407061
22	0xbf26ab0b	-0.6510474
23	0x3f6eacc5	0.93232375
24	0xbda2b8a5	-0.079453744
25	0x3d8bc910	0.06825459
26	0xbd932eb1	-0.0718664
27	0xbbbea9d0	-0.005818583
28	0x3cab20b0	0.02088961
29	0x3d38d63d	0.04512619
30	0xbb86e077	-0.0041161138
31	0x3b3c82f7	0.0028764585
32	0x3d2c9f97	0.042144384
33	0xbd6eb058	-0.058273643
34	0xbd3a4c02	-0.045482643
35	0xbe61453a	-0.21999064
36	0x3d1768a9	0.036965046
37	0x3da14965	0.07875327
38	0x3d4558b5	0.0481803
39	0x3c315d55	0.010825475
40	0x3e094166	0.13403854
41	0x3e06aa1e	0.13150832
42	0xbbcbec1a	-0.006223214
43	0x3d39ec2b	0.045391243
44	0x3e0345a2	0.12819532
45	0x3b195727	0.0023397894
46	0xbef089d9	-0.4698017
47	0xbd19335e	-0.037402503
48	0xbe48261f	-0.19545792
49	0xbb3665f9	-0.0027831777
50	0xbe434ea5	-0.1907297
51	0x3d440a1a	0.047861196
52	0x3d629e4c	0.055326745
53	0x39a6b34d	0.00031795577
54	0xbd39ff58	-0.04540953
55	0xbd43c705	-0.04779722
56	0x374ed316	1.2327704e-05
57	0xbc99ea6b	-0.018788537
58	0x3d94a11a	0.0725729
59	0x3d714bbf	0.058910128
60	0x3e0786d4	0.13235027
61	0xbd80883e	-0.06275986
62	0xbd62b721	-0.055350427
63	0x3e127133	0.14300995
64	0xbe30ff5a	-0.17284909
65	0xbd866183	-0.06561568
66	0xbbcfa6ef	-0.0063370387
67	0xbd0ba478	-0.034092396
68	0x3e312387	0.17298709
69	0x3e24b853	0.16085939
70	0x3d9ac80e	0.07557689
71	0x3d3fc508	0.046818763
72	0xbd213db0	-0.03936547
73	0x3c7cb9ed	0.015425188
74	0x3d6125c9	0.054967675
75	0xbe04b26c	-0.12958688
76	0xbd1e6ac0	-0.038676023
77	0x3e5e2d06	0.21696863
78	0xbd38321c	-0.044969663
79	0x3e3ac012	0.18237332
80	0x3d10873b	0.035285216
81	0x3d31827a	0.043337323
82	0x3d2d7ad1	0.042353455
83	0x3d8d345a	0.06894751
84	0x3b211bf2	0.0024583307
85	0x3cb058e5	0.021526763
86	0xbda3f053	-0.080048226
87	0xbd2f89f7	-0.042856183
88	0x3aff53ca	0.0019479927
89	0x3e34b1d4	0.17645961
90	0x3cb5937a	0.022165049
91	0x3d69a399	0.057040785
92	0x3d0a3104	0.03373815
93	0x3e2b85c1	0.16750242
94	0xbdaffac6	-0.08592753
95	0x3d9af9ea	0.075671986
96	0xbd47c188	-0.04876855
97	0x3d992956	0.07478587
98	0xbd2721ce	-0.040803723
99	0x3e47a3d1	0.19496085
100	0xbdcf466d	-0.101208545
101	0xbb902a39	-0.0043995646
102	0xbd7bcfee	-0.061477594
103	0xbc8e35da	-0.017359663
104	0xbc92dbc9	-0.017927067
105	0x3e4998ec	0.19687241
106	0xbd8dd641	-0.06925631
107	0x3e11a771	0.1422403
108	0x3c97fda9	0.018553572
109	0xbea3e96b	-0.3201402
110	0x3d6e1946	0.05812957
111	0xbe254d21	-0.16142704
112	0xbdec6c92	-0.11544146
113	0xbea01157	-0.3126323
114	0x3e100f4c	0.14068335
115	0x3e1a1918	0.15048635
116	0x3d61394c	0.054986283
117	0xbebb76f6	-0.36614197
118	0x3da56826	0.08076505
119	0x3d973285	0.07382683
120	0xbc42840d	-0.011872304
121	0x3e1df66e	0.15426037
122	0x3b8b571f	0.004252329
123	0xbc0c959e	-0.008580593
124	0xbd96067b	-0.07325455
125	0x3d5174fa	0.05113695
126	0x3ab52009	0.0013818751
127	0x3e103ce5	0.1408573
