test_rl/bert_predictor_2_mask.pth (torch, 431572 bytes, 6 tensors)

fc1.weight f4 [128, 768]
00000000: a839 193d 0df5 c3bd fa87 b5bd f4d8 fcbc
00000010: 5c63 933c 374f e1bd be32 debd 1633 bc3d
00000020: fdda 7bbd 53e1 203d 4c08 a9bd 4daa 593d
00000030: f8bd b93d 1783 ac3d 2488 82bd 4eba c23d
00000040: 1135 f9bd 93dd e6bd 53ff c5bd f11e a93d
00000050: 4b06 493d 536b 913d bd22 9cbd 0d98 0dbd
00000060: 6a0e 863d 5cd9 b73d 82b9 0dbd 590f d43d
00000070: 7b53 843c 7b1e ff3c 6a24 7c3d 60d5 d2bd
00000080: 7707 c9bd dc36 24bc 5e6d 9d3d 0edc df3c
00000090: 7e5a 103d e916 a53b 9a56 adbd da27 b93d
000000a0: bed3 0fbc ffe6 30bd 37ac 333d 4320 b7bc
000000b0: b72b 9fbd 57ec c43d 7d2d 953d 6dc2 873c
000000c0: 6d30 d7ba cf25 a3bd ea01 3fbd f10a 2cbd
000000d0: ae2e 9cbd 884d b5bd 89b8 be3c cdbf acbc
000000e0: 8105 f1bd abae baba bbc2 743d ded4 7abd
000000f0: bf19 06be 3a20 fb3b ebfb f4bd 5c66 78be
00000100: 3b4e f03c d8aa 293e b3a4 7ebd 1937 4dbd
00000110: 783d db3d d914 aa3c 00ff cdbd 4b1a cc3c
00000120: a59e 3cb9 ba89 17be baed fe3b 602e 5cbd
00000130: 4664 4c3d 2b67 933e f8a5 7e3d 8941 e73c
00000140: b78e 68bc 5ee6 8abd 3b2f 28bd b81f 793d
00000150: 20d8 923d 58d4 2e3d 6996 913b f4c4 11bd
00000160: f2ec 12bd 030a 31bd 40bf c73d 3b34 1c3d
00000170: 14b1 e5ba afb7 873c 4c6d b3bb 28c8 9dbd
00000180: 37a9 0d3d 9117 f23c 14ba 963c 3a22 c43d
00000190: b1a7 c1bd d453 91bd a4b8 a83d c226 173d
000001a0: 5a8e cb3c e23c 683e db35 3cbc 597b f9bd
000001b0: da1a 923d c0a5 05bd d123 743d a0d8 9cbc
000001c0: 6b5f 523d 85f5 60bb fc9e 46bd 0bf8 163d
000001d0: 1fbd d0bd 9a03 343d 62bd b83a 0486 4a3d
000001e0: 3cd0 773d bae8 00ba 0971 e9bd f744 c93c
000001f0: a98d cc3b cfff a0bc 5528 9339 cc71 093d
00000200: 8cd6 703b 49e4 9dbd b764 4bbd e583 ef3b
00000210: a1a7 52be a618 c1bd 0035 f63c 66c4 e6bd
00000220: cdcf a8bd 3153 7d3d 0c29 603e a4d9 ca3d
00000230: 4507 a7bd ded9 02be b4b1 ae3d ff50 0dbd
00000240: d161 263c 10ef 15be cec2 68bd b277 153d
00000250: a281 05be a84e 293e b873 32be 8161 97bd
00000260: 84ce d3bd 5019 debd 78ec 1ebe a683 643d
00000270: 9dbe ffbc 5bb5 2bbd f697 90bb 19d0 bfbd
00000280: 64d4 d4bc d867 273d 2fc5 53bd 10be 8b3d
00000290: 3757 00be a1bc 123d 79d1 10be 86da a83d
000002a0: 4f21 f6bd b964 2f3c e91b 82be b53d 8dbe
000002b0: 4ad8 53be e05f a5bd 78da b73d 99d2 c9bd
000002c0: 61b6 11bc 4cac 8f3e 6846 e3bd 0444 b43c
000002d0: 616e e0bb 4f43 cb3d f26a 36bc a34a 083e
000002e0: 60cf aabb d6cc 0cbc 0b80 1a3d 353a eebb
000002f0: af58 bc3d 889e 9d3c 6784 d63c fe6e bcbc
00000300: fc7e 76bd 7289 663d c760 a1bc 15c9 12bd
00000310: 13ff 063d 667a 483c 9920 123c 0312 7cbd
00000320: beeb a93c 7f14 273b 8677 323c 6c9b b2bc
00000330: 93f4 22bd d18a 2e3d d60c a63c 2b7b 1bbc
00000340: 69a8 27bd cee9 82bb ebf6 5d3d f6bd 9cbd
00000350: 4926 81bd 1e9f 7bbc 6608 833e f485 2fbd
00000360: 5559 87be 05e9 923d 77be c1bc 9347 a43d
00000370: 733a 23bd f610 cd3c 7982 19bc 2f11 ec3d
00000380: df4f 85bd ab90 893c 5fe8 6a3d 9f09 92bd
00000390: 07f8 a13d 85c1 16bd 2a0c 803a 53f7 84bd
000003a0: d668 8ebd 383a 943c 0674 053e 40d0 26bd
000003b0: ff0b e2bd cfcd 97bd feee 4d3d dafb ab3d
000003c0: f796 0ebb 4c08 04bd 9503 c9bd ffec d0bd
000003d0: d620 4ebc 559a ac3d ab28 313c 5d35 3f3d
000003e0: 0785 4c3d 0eb6 6ebd 5cdb e9bc f077 8d3d
000003f0: 64d0 b5bc 5adc 123d d034 b33d 4743 bbbc
0.0374085 -0.09568224 -0.08863826 -0.03086517 0.017991714 -0.11001437 -0.10849522 0.09189431
-0.06148814 0.039277386 -0.08253536 0.053140927 0.09069437 0.08423441 -0.06373623 0.09508191
-0.12168325 -0.11272731 -0.0966784 0.08257855 0.049078267 0.071005486 -0.07623813 -0.034568835
0.06545718 0.08977005 -0.034600742 0.1035449 0.016153088 0.031142464 0.061558165 -0.10294604
-0.09815877 -0.010022845 0.07686876 0.02732661 0.03524255 0.0050381315 -0.084637836 0.09040804
-0.008778511 -0.043189045 0.04386541 -0.02235425 -0.0777201 0.09615391 0.07284067 0.016572202
-0.001641763 -0.07966196 -0.046632685 -0.042002622 -0.07626091 -0.088526785 0.023281353 -0.021087551
-0.11768628 -0.0014242729 0.059756022 -0.061238162 -0.13095759 0.007663754 -0.11962112 -0.24257797
0.029334178 0.16569078 -0.06216879 -0.050101373 0.107050836 0.020761894 -0.10058403 0.024914881
-0.00017988177 -0.14798632 0.007779804 -0.053755164 0.049900316 0.28789648 0.06217 0.028229492
-0.014194182 -0.0678222 -0.041060667 0.060821265 0.07170129 0.042682976 0.004442979 -0.03558822
-0.0358705 -0.04322244 0.09753275 0.03813575 -0.0017524087 0.01656708 -0.0054756757 -0.077041924
0.034585204 0.029552253 0.018399276 0.09576841 -0.09455813 -0.07096067 0.082383424 0.036902197
0.024848152 0.22679475 -0.0114874495 -0.1218173 0.07134028 -0.032628775 0.05960447 -0.019146264
0.05136053 -0.0034326029 -0.048491463 0.036857646 -0.10192322 0.043948747 0.0014094526 0.049444214
0.060501322 -0.00049174915 -0.11398513 0.024569018 0.006242473 -0.019653229 0.00028068075 0.03355579
0.0036748974 -0.077095576 -0.049656596 0.007309424 -0.20571758 -0.094285294 0.03005457 -0.11267929
-0.0824276 0.061846916 0.21890658 0.09904793 -0.081556834 -0.12778422 0.08529988 -0.034501072
0.010155157 -0.14641976 -0.056826405 0.036491103 -0.13037732 0.16533911 -0.17426956 -0.07391644
-0.10342124 -0.10844672 -0.15519893 0.055789612 -0.031218821 -0.041921 -0.0044126464 -0.09365863
-0.025980182 0.040870517 -0.05170172 0.06823361 -0.1253327 0.03582442 -0.14142407 0.08244805
-0.12018072 0.0107051665 -0.2541192 -0.2758614 -0.20687976 -0.08074927 0.089772165 -0.098546214
-0.00889358 0.2806114 -0.11097413 0.022005089 -0.0068490957 0.099249475 -0.011133896 0.13309722
-0.0052127093 -0.008593759 0.037719768 -0.0072701224 0.091966026 0.019240633 0.026186181 -0.023002144
-0.060179695 0.05628342 -0.019699467 -0.035836298 0.0329581 0.012236213 0.008918905 -0.061540615
0.020742293 0.0025494394 0.010892754 -0.021802627 -0.039784025 0.042612854 0.020269793 -0.009489815
-0.040932093 -0.003995157 0.054190557 -0.0765342 -0.063061304 -0.015357761 0.25592345 -0.042852357
-0.26435342 0.07173351 -0.023650391 0.08021464 -0.039850663 0.025032502 -0.009369486 0.11526715
-0.06509375 0.016792616 0.057350513 -0.07130741 0.079086356 -0.03680565 0.000976925 -0.06492486
-0.069535896 0.018094167 0.1303254 -0.040725946 -0.11037444 -0.07412302 0.05027675 0.08397646
-0.0021757463 -0.032234475 -0.09815136 -0.102014534 -0.012581071 0.08427874 0.010812919 0.04668175
0.049931552 -0.05827909 -0.028546982 0.06907642 -0.022194095 0.035854675 0.087503076 -0.022859229

fc1.bias f4 [128]
00000000: a6b1 97bd b1f0 26bc 5ea8 913b b39b a43c
00000010: 11b9 913b 39bd 83bb 5a14 3dbd 9bda 9e3c
00000020: 9c22 a1bc 3c99 22bd c235 c2bb 28ad 7d3c
00000030: ea45 10bc e4dc 07bd 3f4b e7bc ed12 6bbc
00000040: 14ca c8bb d518 0cbc 81c7 b53c 57d9 c0bb
00000050: a922 623c 76b4 c5bc 1788 34bc 91e3 00bb
00000060: a0df 42bd 124d be3b df40 4ebc 3878 aa3c
00000070: 853b f3bc 7274 8ebc e5ae 2cbd b06c 3d3c
00000080: 54c8 8f3b 5a1f 4b3c 7095 d63b 85d3 13bd
00000090: 2c79 94bc d796 26bd d82a 2fbb 474f 14bd
000000a0: da0b 043c c7b8 03bd 0b61 0fbc b843 0ebd
000000b0: a1b6 92bc 7078 f23b 8ba5 2f3c 85bc a63b
000000c0: ee08 93bc 81fa bf3c bed7 be3b bfd1 b4bc
000000d0: c9c5 713c b365 32bd 4060 30bc efa6 823d
000000e0: 1932 5d3c b12c 063c 72a9 c3bc 7ab2 333d
000000f0: 7f04 9fbc 78f4 5dbc 7ce0 fd3d b74b ed3c
00000100: 7b71 25bd d982 fc3b ff93 5ebd f607 d1bc
00000110: 9b63 86bc 4147 e33a c30b 9e3c 60ed 19bd
00000120: b83e 87bd b12b 7c3c c890 95bd 22b1 043d
00000130: 3d8b d4bc 3101 093c 922d 773c f112 2ebc
00000140: 22e6 a3bb a159 b4b9 5ffc 8a3c 6c29 813c
00000150: 8834 db3c ad66 49bd 55df f93c 0c5a c7bc
00000160: 4f71 01bd b561 fa3d d7ea eabc 5a6b f7bc
00000170: 8638 db3c f494 433c 9375 bf3a 8201 03bd
00000180: d762 b03c b614 71bc 2cc3 a43c 7681 d73d
00000190: 2149 753c a7b6 393b 7812 843c 599b 9a3c
000001a0: a631 09bd 1c59 8e3c ef4c c0bc 30df 9b3c
000001b0: 2171 c8bc 7ef0 a2bb 3eec c83c 7026 27bd
000001c0: 0d95 74bc b4d4 e93c 38d9 cabb 48b8 ebbc
000001d0: cef9 df3c f096 de3c 2fcc e9bc f27e bebc
000001e0: 9faf e63b 70ba 113c 3e77 1bbd f803 c3bc
000001f0: 498b 3dbc 4ebb a83c a420 aebb 030f 32bd
-0.074069306 -0.010189221 0.0044451198 0.020093774 0.0044471105 -0.00402036 -0.046161987 0.019391349
-0.019669823 -0.039696917 -0.0059268186 0.015483178 -0.008805731 -0.033169642 -0.028234122 -0.014347774
-0.006127605 -0.008550842 0.022189857 -0.005885284 0.013802209 -0.024133902 -0.0110187745 -0.001966689
-0.047576547 0.0058075273 -0.012588709 0.020809278 -0.029691467 -0.01738951 -0.04215898 0.011561558
0.0043878946 0.0123976115 0.006548576 -0.036090393 -0.018124186 -0.040671196 -0.0026728418 -0.036208417
0.008059466 -0.03215864 -0.008751164 -0.03473255 -0.01790935 0.007399611 0.010720621 0.0050883912
-0.017948594 0.02343488 0.0058240583 -0.022072671 0.014756628 -0.04355402 -0.010765135 0.06379496
0.013500714 0.008189366 -0.023884509 0.04387138 -0.019411324 -0.013547055 0.123963326 0.028966768
-0.040391427 0.007706028 -0.05434036 -0.025516491 -0.016404917 0.0017339961 0.019292718 -0.037579894
-0.066037595 0.015391276 -0.073030055 0.03239549 -0.0259453 0.0083621 0.015086548 -0.010624633
-0.005001799 -0.00034399054 0.016966043 0.015766822 0.026758447 -0.049170185 0.030502 -0.02433493
-0.0316022 0.122256674 -0.028676433 -0.030202556 0.02676035 0.011937369 0.0014607183 -0.03198386
0.021531506 -0.0147144105 0.020112596 0.105227396 0.014971049 0.002833763 0.016122088 0.018872904
-0.033494614 0.017376475 -0.023474185 0.019027323 -0.024468007 -0.0049725166 0.024526712 -0.04080814
-0.014928115 0.028543808 -0.0061904453 -0.028774396 0.027340796 0.027171582 -0.028539745 -0.023253892
0.0070399786 0.008894548 -0.037955515 -0.023805603 -0.011568853 0.020597126 -0.0053139497 -0.043471348

fc2.weight f4 [64, 128]
00000000: 66c0 823d 3975 9bbd cbe7 0f3e 6e05 023d
00000010: 254c 9e3c f52f a5bd 9f51 943d c86f ea39
00000020: 433e 4a3d 5149 11bd 88a0 35bd 236d 85bd
00000030: 6082 f43d 0eaa 20bc 7ac4 a5bd 6706 213c
00000040: d050 50bd 1326 a9bc 316a ba3d 11da 923d
00000050: b325 8fbd 2799 263e 4fa2 1a3d dbff a2bd
00000060: 687e a2bd 1a01 2bbc c32b 5dbd de78 8339
00000070: e680 ba3d 0988 9fbd bae2 ed3d dab0 e9bc
00000080: 2a8a 9dbd d5d1 8b3c 4cea 02bd 2eec 683d
00000090: e037 59bd d8b6 9c3d 7b7d 66bd fbf4 cc3d
000000a0: 49f6 85bc db29 8cbd db31 5cbd 8adb 63bd
000000b0: de2f 4d3c a7d5 723e 71e0 a83c f421 32bd
000000c0: b42d c63d 6835 713d f025 d23d 8c34 6a3e
000000d0: 0454 99bd e4b6 a23d 2e5d 7fbb 098a f73d
000000e0: db63 b73d 797a c33c b84a 993d 6807 e43d
000000f0: 1d17 4abb 1dc0 4abd 5355 2c3d 8fe2 81bd
00000100: d13a 673c a5a0 a23d 7ea2 bfbd 5586 003c
00000110: 2dfc 0a3c e117 febc 94d5 113d 8a5c f63b
00000120: e720 f93b 85de c73c 0951 be3d 53da 17bc
00000130: 42d7 b53c 9389 893e d510 ab3d 638a 8f3c
00000140: 19df 6e3c fc5d f53d 42f1 0a3d cf48 ad3d
00000150: 385a bcbc 3b98 d4bc 1b38 273e dda7 053d
00000160: 107f 86bd b6dc b73d 2226 863d 7b9f f53d
00000170: 5545 50be 3c56 81bd 29cb 4d3c 100e 323c
00000180: 3a37 163c 5241 af3b 0316 1f3d 50a6 053f
00000190: 1ae6 5b3d aa37 21be 4ea8 a63d 4be7 9b3d
000001a0: ce8b 973d c8c5 8d3d 9db6 53bd 0694 2dbd
000001b0: 8fcb c93c 3f51 0e3d e910 943d b76e b13d
000001c0: 6a5f f5bd d6aa 77bd 1681 03be b023 8a3e
000001d0: 0f5b 3e3d a4f7 f4bc c936 453c c4b4 393d
000001e0: 5ded a63d 7cb1 8d3d ae0f 91bd c6c0 f73b
000001f0: 2484 8d3d f67d b13b 87e8 9ebd 2fd4 c93e
00000200: 3dae 3fbc 4264 a03d f863 99be a9b1 5bbc
00000210: c7c7 98bd a2a1 673e 9ec6 babb f022 97bc
00000220: cf61 a13d aa71 143d 6c23 9e3d 82b0 09be
00000230: 6312 a8bd bf17 523d 512f 963d 17fd 613c
00000240: 176c e13c 0470 61bd 743c 7a3a e73d e8bc
00000250: d2ad 263e ca4d 43bc f44d bfbe ea6d 67bc
00000260: 6366 e2bc 805a 493b fb8d 733c 3ceb eebb
00000270: 4f7d 8abd 51c2 b53d f605 e53b b818 553d
00000280: d084 09bd a415 2cbe f01e 05be cdd4 beba
00000290: f118 8ebd a2f1 74bd 9e34 47bd 388d 5b3c
000002a0: a59d 4b3d 97c6 a1bd c1f4 b8bc 4fbf f1bb
000002b0: a144 4fbd f1ae b7bd f5b4 b4bb b948 83bd
000002c0: 120a 9abd d98a 9ebc bfeb 093d 0d0b b43e
000002d0: a07a f7bc 5a35 b0bd c76a 0b3e f348 9fbc
000002e0: 3b5b aabd 8ebd 3ebd e881 c93e 4205 71bc
000002f0: 12a5 43bd 0385 803d 0636 79bd d744 813d
00000300: 1ad0 6dbd 5b44 7f3d e1b9 98bc d203 2cbe
00000310: bef3 93bd 3530 b0bd fcb6 893d 6112 ddbc
00000320: d04d 9c3d 5334 afbd 5ddf 08bd a489 433d
00000330: 9b9e 823d 7335 19be 7bca 0ebd 2a13 c03b
00000340: bb5f 9fbd 7c24 2cbd 68cb 0ebd 384b fd3b
00000350: 2629 043d a780 9ebd 42ec 3cbe cbb4 cfbc
00000360: 0e8c b33d d7f1 823d 1fb4 813d e2a6 7c3e
00000370: 28f2 f5be 35b7 13bd 3afb a83d cfaa b23d
00000380: db62 c1be 0541 46bd 6fdb 033d 4135 33bf
00000390: b31f 9fbd 6957 2e3e a5f4 bc3b 5eff d8ba
000003a0: ee4a adbd fd51 23bf ad34 83bd f085 a7bb
000003b0: f741 03bd 3695 db3b 206d 07bd ffce b7bd
000003c0: 0c23 adbe ab0f 4a3d c844 c8bd 47df 0c3f
000003d0: af04 a53d 8524 0abd ca7a ed3c ec77 dbbd
000003e0: ca65 10bd 22b6 1ebd ef72 40bd e12f 3fbe
000003f0: 09fa 033d cba0 47bd ecf1 37bd b35e a43e
0.06384353 -0.07590718 0.14053266 0.03174346 0.019323418 -0.08065788 0.072421305 0.00044715242
0.049375784 -0.03547031 -0.044342548 -0.06514957 0.119389296 -0.009806169 -0.080941156 0.009828187
-0.05085832 -0.020648038 0.09102286 0.07170499 -0.069896124 0.1626936 0.037752446 -0.07958957
-0.07934266 -0.010437274 -0.053996813 0.0002507632 0.09106617 -0.077896185 0.1161551 -0.028526712
-0.07692368 0.01706783 -0.031961724 0.056865864 -0.053031802 0.07652062 -0.05627201 0.10007664
-0.01635279 -0.06843921 -0.053758483 -0.05562929 0.012523619 0.23714314 0.020614835 -0.04348941
0.09676686 0.058888823 0.10261142 0.22871608 -0.07486728 0.0794504 -0.0038965452 0.12086875
0.08954593 0.02386211 0.074849546 0.11134225 -0.003083653 -0.04949962 0.04207356 -0.06342041
0.014113144 0.07940797 -0.09357165 0.007844527 0.008482975 -0.031017246 0.035604075 0.0075183557
0.007602799 0.024398098 0.092928 -0.009268361 0.02219737 0.26862773 0.0835282 0.017522043
0.014579558 0.11980817 0.033921488 0.08461153 -0.022992238 -0.025951495 0.16329996 0.03263079
-0.06567204 0.08977644 0.06550242 0.11993309 -0.20338948 -0.06315276 0.012560644 0.010867611
0.0091684405 0.005348363 0.03883935 0.522069 0.05368624 -0.1574389 0.0813757 0.07612475
0.073997125 0.069224894 -0.051687825 -0.042377494 0.024633197 0.03474545 0.07229788 0.08663695
-0.119810894 -0.060465656 -0.12842211 0.26980352 0.04647356 -0.02990324 0.012036988 0.045338407
0.08150742 0.06918618 -0.07083069 0.007560822 0.069099694 0.005416627 -0.07759195 0.39419696
-0.0116992565 0.07831623 -0.29959083 -0.013409057 -0.074599795 0.22620252 -0.0056999465 -0.018449277
0.07879984 0.03624121 0.077216 -0.13446239 -0.08206632 0.051292177 0.07333244 0.0137932515
0.027517362 -0.055038467 0.00095457514 -0.02834983 0.16277245 -0.011920402 -0.3736416 -0.014125327
-0.027636712 0.0030724108 0.014865394 -0.0072912257 -0.06762182 0.088749535 0.006989236 0.052025527
-0.033573925 -0.1680513 -0.13000083 -0.0014559269 -0.06938351 -0.05980075 -0.048634164 0.013400368
0.04971089 -0.07899206 -0.022577645 -0.007377542 -0.05060256 -0.08968914 -0.005514736 -0.06410355
-0.07521452 -0.019353317 0.03367209 0.3516468 -0.03020984 -0.08603926 0.13614951 -0.019443965
-0.08318182 -0.046567492 0.39356923 -0.014710726 -0.047764845 0.0627537 -0.060842536 0.06311958
-0.05805979 0.06232105 -0.018643321 -0.16798332 -0.072242245 -0.08602945 0.067243546 -0.026986303
0.07632029 -0.08554902 -0.03341614 0.047738686 0.06377908 -0.14961796 -0.03486107 0.0058616595
-0.07781931 -0.04202698 -0.034861952 0.007729914 0.032265805 -0.07739382 -0.184495 -0.025354763
0.08766948 0.063937835 0.063331835 0.24673036 -0.48036313 -0.03606339 0.08251043 0.087239854
-0.37770733 -0.04840185 0.03219169 -0.70003134 -0.07769718 0.17025532 0.0057664686 -0.0016555598
-0.08461557 -0.6379698 -0.064065315 -0.005112402 -0.03204533 0.006701137 -0.033063054 -0.08975028
-0.338158 0.04933135 -0.09778744 0.55028194 0.08057534 -0.033726234 0.028989214 -0.10716233
-0.035253324 -0.038747914 -0.04698461 -0.18670608 0.032220874 -0.04873733 -0.04490845 0.321035

fc2.bias f4 [64]
00000000: c521 1ebe 9413 0ebe 240e fcbd d4da e3be
00000010: 8199 a63d 8114 ccbe 9559 8e3d ae00 0dbe
00000020: 0471 683e 55cb 913e c0c3 ce3d 4714 debe
00000030: 04c3 8cbe df0d 0bbb 10e7 7e3d 7dba 21bf
00000040: a1cc 36be 6d9c 48be 3eb2 3cbe 1be5 c8bd
00000050: f3bf 03be 7d68 80be ed7d 693e 4713 0abe
00000060: 742a a2be bfee 16bf 4372 e2bc 654e 5a3d
00000070: 4553 64be 0af5 1bbe d5e1 77bd cc4e 143f
00000080: 2797 25bf 3da5 a83f 62d3 e9be 33e9 11bf
00000090: a5dc 31bd 4718 e0be 291f b9bd c306 363d
000000a0: fa53 29be 8596 92bd 52c3 b7bc 7bea e8be
000000b0: a0b4 d2be 5283 a8bd a472 093e 3921 033c
000000c0: 3b7a b4bd 7c97 40bf 8848 7b3e 3aba c03e
000000d0: 3209 79be 5884 8cbf 6b0c b3be a0d2 df3c
000000e0: 8133 3c3e 72d4 a0be 52e9 14bd d8ef f0be
000000f0: 6f63 c2bd 6444 09bd 2e43 023e 7889 a93e
-0.1544257 -0.13874656 -0.123073846 -0.4450289 0.08134747 -0.39859393 0.0695068 -0.1376979
0.22699362 0.28475443 0.1009593 -0.43374845 -0.27492535 -0.0021217985 0.062232077 -0.63175184
-0.17851497 -0.19590922 -0.18427369 -0.098093234 -0.12866192 -0.25079718 0.22801943 -0.13483916
-0.31673014 -0.5895805 -0.027642375 0.05329742 -0.2229739 -0.15230194 -0.060518105 0.57932734
-0.64683765 1.3175427 -0.45669085 -0.5699646 -0.043423314 -0.43768522 -0.090391465 0.044440042
-0.16535941 -0.071576156 -0.022432003 -0.45491394 -0.4115343 -0.08228172 0.13422638 0.008003526
-0.08812376 -0.75231147 0.24539387 0.3764208 -0.24319914 -1.0977888 -0.34970412 0.027322114
0.18379022 -0.31412083 -0.036355324 -0.47057986 -0.09491622 -0.033512488 0.1272094 0.33112693

fc3.weight f4 [8, 64]
00000000: 63d2 bf3d d379 fabd 202a a1be 5046 8bbd
00000010: 2cb7 d93c a761 a5bd b8f4 523d a052 a9bc
00000020: 731c 05bf 1509 0d3e e64a f7bd f799 c0bf
00000030: eefb 4dbe 7cb7 283c 967c 6bbe 7cfe 293e
00000040: 34ba af3c 1d2a fa3b ac20 93bd 147c bd3d
00000050: d807 74bd 0108 9fbd 0c31 343e 0cfb 1abe
00000060: 6727 e5bd 84d2 d4be f3ee 62bc c869 46be
00000070: 4842 a0bd 488c 4c3e 273e 80bd daa4 55be
00000080: 0cba a8bd 456a cabe 1468 dc3e 59f0 bdbe
00000090: ff52 19be 1c80 373d 26bd 32bd 67db a0bd
000000a0: e4b1 ffbc 9ea2 d53d b344 f3bd dd1e dc3d
000000b0: ccf8 e73d a22c a5bd 952a 8f3d 5f14 50be
000000c0: 2969 c8be d2e2 cabe b3be a13d 1396 c53e
000000d0: 579b 42bf ae3e a7be 1034 953d 1771 bebc
000000e0: 2277 a8be a7b3 b93e 6276 b7bd 9813 f43d
000000f0: 6cc6 553d 6371 84bd 49e2 3e3e 984e f2bc
00000100: f988 b73d 1c30 bbbd 63eb 7abe 863d 23be
00000110: 5bd3 0d3e 4419 083e aa03 cfbe a669 9cbd
00000120: 29d7 e23e bb71 37be 68d3 663d 5897 523e
00000130: 8cf1 5fbe d096 cfbe 1712 88be 3094 fa3d
00000140: 8212 283e 16f6 563d 7cad 39bd d198 eebc
00000150: 037c b1bc 4dbb bb3d 9063 c4be 1982 9cbe
00000160: 72a8 b9bc 9c69 27be 91ae 8fbe fa29 f33d
00000170: 5564 bebd a917 da3c 3c96 7f3d 4ae1 1abf
00000180: 94ee 17be 56fd 61be 52d8 3ebf 7087 ca3d
00000190: 796a 193e b2b6 ac3d 868e 3b3c 1a45 32bf
000001a0: d6c6 f8bc e7b1 953d 7ef2 e7be a128 56bd
000001b0: db75 c63d dca0 61bf 6dbe b03d e2fd 153e
000001c0: ad66 f6bd f1fb 2c3f dd65 98bd 1e4a a7be
000001d0: 1985 4e3f be8f 94bf d9b4 cf3d 1078 183d
000001e0: 04a4 42bd 65ac 77bd e16b 29be 812a 12be
000001f0: 79c6 983e a2f4 2e3d e8e4 efbd b7f3 f33d
00000200: bd3e a23d b06d 933e f6da 703d 6e4e 87bd
00000210: b111 0dbe 710f a33d 4eb9 bebd d533 edbd
00000220: 898a 193d 0c30 82bd 65a7 0f3e eaab 9c3d
00000230: e69b 04be 6a3a 21be ebe1 9c3e d3c4 f4be
00000240: 24e7 a6be 8dad 8c3d 5c44 e6bd 364a 7d3d
00000250: 0cdd 83bd 29c4 7cbe c26e 043e 3113 ecbd
00000260: 350d 7bbd fbd7 4abe b2a9 90be 3c48 01bc
00000270: 51a2 07bd bb2c 63be 0add 053b 83ef e23e
00000280: b1b6 92be 70a7 4a3e 1e51 3bbe c6fb 033e
00000290: f1be 60be 1c9d 363d c6a8 22be 75a5 1e3d
000002a0: 6621 c0bd 078e eebd 00fc 4abe bd5d b9bc
000002b0: 55bb 103e a2d7 67be df05 953d d69a 5b3d
000002c0: bf24 eebd 31e5 5c3d 055c c23d 2134 b7bd
000002d0: 6ab3 4cbf f859 22be 6c48 4bbe 09c9 1e3d
000002e0: b2c1 863d ae92 09bf 25cb c33c 268c c3bd
000002f0: ff3f e0be ec0c d9bd 0ddf 01bd 3d68 333e
00000300: d41d 15bf b797 83bf 512a d33e 08fc 16bf
00000310: b37f 04bc a193 74be 4e81 a4bd 4ce8 5bbe
00000320: 04a7 42bf 756e 123e 2ca8 a13d 8911 91be
00000330: 89ae 6fbe 6f57 26bf 89b0 21be d7a6 fdbf
00000340: 3f79 d5be adfa d5bc 1015 bb3c 75fb dfbc
00000350: 6be9 46be e2ba 8fbe b0ec f53d 5cd4 21bf
00000360: eb11 70be 9d0a 42bf 33ca 8cbe e13c 0dbe
00000370: 3369 e2bd 467e 20bd 0ae5 7f3e 1579 33bf
00000380: 816d 06c0 1d29 49bc ee54 49bf 7ce1 073e
00000390: 7ce2 d3bd 1d98 93be 9a64 aa3c 0293 073e
000003a0: 0b4f 9dbe e6bd bbbe 4bad 59bf f305 693e
000003b0: d9e7 88bf e03e d1bf 6a7e a8be b9f2 46bd
000003c0: fae7 07bf 453e 35bb 969b 31be 5ad9 c1be
000003d0: 7b1c 9fbf 65d0 4dbd e8c6 d9be 8ae1 dd3d
000003e0: e957 b53b 5570 5ebd 295b eebc 8621 35bf
000003f0: 1826 89bf c341 a0bd ac78 3c3e 2b79 a33c
0.093663 -0.122302674 -0.3147745 -0.068005204 0.026576601 -0.08075266 0.051502913 -0.020669281
-0.51996535 0.13772996 -0.120748326 -1.5046986 -0.20115635 0.010297652 -0.22996745 0.16600984
0.021451093 0.007634415 -0.07183966 0.09252182 -0.059577793 -0.077651985 0.17596835 -0.1513483
-0.11189156 -0.4156686 -0.013850915 -0.1937629 -0.07825142 0.19975388 -0.062618546 -0.20863667
-0.082386106 -0.39534202 0.43048155 -0.37097433 -0.14973067 0.04479991 -0.043637417 -0.07854348
-0.031212755 0.104314074 -0.11878338 0.10748074 0.11326751 -0.08065154 0.06990544 -0.20320271
-0.3914273 -0.39626175 0.07897701 0.3859106 -0.7601828 -0.32665008 0.07285321 -0.023247285
-0.3290339 0.36269876 -0.089581266 0.119178 0.052191183 -0.06466939 0.18641008 -0.029578492
0.08961672 -0.091400355 -0.24503855 -0.15941438 0.13850157 0.13290888 -0.40432483 -0.07637338
0.4430478 -0.17914478 0.056353956 0.20565546 -0.21869487 -0.40544748 -0.265763 0.12235296
0.1641331 0.05248078 -0.045331463 -0.029125603 -0.021665579 0.09166584 -0.3835721 -0.30568007
-0.022663329 -0.1634888 -0.2806287 0.11873241 -0.092964806 0.02662261 0.062399134 -0.60500014
-0.14837104 -0.22069296 -0.7454883 0.09889114 0.14982022 0.08433284 0.011447554 -0.6963669
-0.03036825 0.07309323 -0.45302194 -0.05228484 0.09690448 -0.88136077 0.08630071 0.1464763
-0.120313026 0.6757193 -0.07441304 -0.32673734 0.8067184 -1.1606367 0.10141916 0.037223876
-0.0475197 -0.060467143 -0.16545059 -0.14274026 0.29838923 0.04271377 -0.11713582 0.11911719
0.07922123 0.28794622 0.058802567 -0.06606756 -0.1377628 0.079619296 -0.09312688 -0.11582152
0.037485633 -0.063568205 0.140287 0.076499775 -0.12950096 -0.1574494 0.30641112 -0.47806415
-0.3259822 0.0686904 -0.11243507 0.06183835 -0.06438646 -0.24684204 0.12932876 -0.11527098
-0.061291892 -0.19808953 -0.28254467 -0.007890757 -0.03311378 -0.22185032 0.002042594 0.44323358
-0.28655007 0.19790435 -0.18292663 0.12889013 -0.21947838 0.044583425 -0.15884694 0.03873201
-0.0938137 -0.11648183 -0.19822693 -0.022627706 0.14133961 -0.22640851 0.072765104 0.05361446
-0.116281025 0.05392951 0.094902076 -0.0894549 -0.79961264 -0.15854633 -0.19851846 0.03876594
0.06579913 -0.5373944 0.023900578 -0.095482156 -0.43798825 -0.10598168 -0.03170686 0.17520232
-0.5824864 -1.0280675 0.41243222 -0.5897832 -0.0080870865 -0.23884441 -0.080324754 -0.21475333
-0.76036096 0.14299949 0.07893404 -0.2833369 -0.23406424 -0.64977163 -0.15789999 -1.981654
-0.41694066 -0.026120508 0.022837192 -0.027341584 -0.1942498 -0.28072268 0.12008035 -0.6321466
-0.23444335 -0.75797445 -0.27498016 -0.13792755 -0.110552214 -0.039182924 0.24989715 -0.7010663
-2.1004336 -0.012277869 -0.7864522 0.13269609 -0.10345933 -0.2882699 0.020799924 0.13239673
-0.30724367 -0.3666832 -0.8503005 0.22756176 -1.0695754 -1.6347313 -0.32908946 -0.048571322
-0.53088343 -0.0027655524 -0.17344508 -0.3786114 -1.2430567 -0.05024757 -0.42534566 0.10834034
0.0055341613 -0.054306347 -0.029096203 -0.7075428 -1.071475 -0.07825043 0.18405408 0.019955238

fc3.bias f4 [8]
00000000: 0e61 3c3e ea1b 173e f194 3f3e 3776 43bf
00000010: 6977 4cbf 5b53 60be 539f 17bf 2a97 47be
0.18396398 0.14756742 0.1870916 -0.76352257 -0.79869705 -0.21906798 -0.59227484 -0.19491258
