test_rl/bert_predictor_2_mask_best_model.pth (torch, 994400 bytes, 22 tensors)

fc1.weight f4 [256, 768]
000000 4a 8d a5 bd 55 b7 eb bc 18 00 0e bc 6b ce 69 3c
       -0.080835894 -0.028773943 -0.008667015 0.014270405
000010 dc 88 eb bc 38 44 3b bd 6c d4 f2 3c 1d a0 2d bd
       -0.028751783 -0.045719355 0.029642306 -0.042389024
000020 2e 25 dd 3b 4f 9d ac bb 4c 3a 5a bd 7c c0 4d bc
       0.006748817 -0.005267776 -0.053278252 -0.012558099
000030 0a f0 1f bd 17 59 f6 bc a1 16 b6 bc dc de 5d bc
       -0.03904728 -0.030071778 -0.022227587 -0.013541903
000040 aa e3 ea bc bc 17 b3 bc 2d 9e 0a 3b 0f e4 f2 bc
       -0.028673012 -0.021861903 0.002115141 -0.029649762
000050 91 cb 1f bd e3 ff 7b bd 7b 01 bc 3b c2 96 06 bd
       -0.039012495 -0.06152333 0.005737481 -0.032858618
000060 94 8e 2c bd 36 de 48 bd b7 e6 12 bc 7c b9 06 bd
       -0.04212816 -0.049040042 -0.0089661395 -0.032891735
000070 0b bd f9 3c 3e fa 56 bc be 03 90 bc 42 ce 0e bc
       0.03048565 -0.013121186 -0.01757991 -0.008716168
000080 95 a1 15 bd eb d2 72 bc 8e 1a 09 bd 06 e1 cc bc
       -0.03653105 -0.014820795 -0.03347259 -0.025009643
000090 79 bc 18 bd 32 da ff ba 0d 56 98 ba 60 0b 48 bd
       -0.037289117 -0.0019519983 -0.0011622325 -0.048838973
0000a0 d9 42 f1 bc aa a0 63 bc 00 e3 31 3b e3 d2 0f bd
       -0.02945082 -0.013893286 0.002714336 -0.035113227
0000b0 e4 82 11 bd 20 a7 27 bd 2d 4a a2 3c 15 30 0a bd
       -0.035525218 -0.040930867 0.01981076 -0.03373726
0000c0 6b 0b 9f 3c f9 16 9a bc 4a 8c 18 bd 85 fe 52 bc
       0.019414624 -0.018809782 -0.037243165 -0.012878065
0000d0 b3 fb 92 3d 64 2b b5 3c cc 36 a5 bb a2 97 24 bd
       0.07176914 0.022115417 -0.0050419327 -0.04018367
0000e0 99 f6 b6 3b 41 be c9 bd 96 cf ad bd a3 27 ff bb
       0.005583596 -0.09850741 -0.084868595 -0.0077867075
0000f0 99 8d 96 bd 37 8f 3f 3c 9e 69 34 bd 21 f3 4f 3c
       -0.07351226 0.01169186 -0.044046037 0.012692244
000100 ef f0 14 bd e0 45 99 bd e0 fd 5f bb e7 c0 00 3c
       -0.036362585 -0.07484031 -0.003417842 0.0078584915
000110 c4 96 65 bd 10 cc fe b9 03 6a a0 bc f9 d2 99 3c
       -0.056051984 -0.00048598694 -0.0195818 0.018777357
000120 72 62 ac 3c f7 f8 cd bc 18 25 8b bc 5a c8 e8 bc
       0.021043036 -0.02514313 -0.016985461 -0.028415848
000130 9d a4 36 bd 94 14 10 ba 74 f6 28 bc 22 31 40 bc
       -0.04459058 -0.00054962304 -0.010312665 -0.011730464
000140 4c a5 50 3c 67 e6 b8 bd be fb bb bc 35 32 89 3c
       0.012734722 -0.09028321 -0.022947188 0.016747573
000150 a6 df 16 3b df f3 f0 bb dc 97 92 3c 16 ec 35 3c
       0.0023021488 -0.0073532904 0.017894678 0.011103651
000160 09 ce 09 3c 0f c0 ce bc 9d 6f 0c 3d 08 54 16 bc
       0.008410939 -0.025238065 0.03428613 -0.009175308
000170 e0 a1 1e bd 73 71 d7 bc 88 eb 84 3c f9 90 3d bc
       -0.038728595 -0.026299214 0.016225591 -0.011570209
000180 ce 7e cc bc d5 6a 2f bc 59 4d e3 bc ba c6 cd bc
       -0.024962809 -0.010706623 -0.027746843 -0.025119174
000190 80 6b 3d 3b 6d 68 8e 3c 53 00 4f bd 57 1f 5d bc
       0.0028903186 0.017383778 -0.05053742 -0.0134962415
0001a0 e8 fc 06 bd 38 b9 b0 bc 8e 1b 23 bd 9f 5a f0 bc
       -0.032956034 -0.021572694 -0.0398212 -0.029340087
0001b0 57 bc bd bc a3 69 02 3d 9b cc 28 bc 12 b1 df bb
       -0.023161096 0.031839024 -0.010302688 -0.0068265283
0001c0 a6 cb 97 ba e3 1d 0f bd dc 6f f3 bc 67 af 71 bc
       -0.0011581078 -0.03494061 -0.029716425 -0.014751292
0001d0 4c 18 8d b8 f2 15 a9 bc 0d b7 65 bd d0 04 c9 3c
       -6.7279296e-05 -0.020640347 -0.056082774 0.024538428
0001e0 00 86 ff 3c d2 43 e1 bc 24 ad b4 bc 9b 8b d0 bb
       0.031191826 -0.02749816 -0.022055216 -0.0063642985
0001f0 42 07 a6 bc 6e 6e ec bc 71 fd b0 bc d5 37 5b bc
       -0.020267133 -0.02886125 -0.021605225 -0.013380011
000200 42 41 1e bc 6b 9a 05 3d 35 08 68 3d 62 22 5f bb
       -0.009659113 0.032617968 0.05664845 -0.0034047593
000210 a4 9a 8e bd 5a 6c 87 bc 58 87 6d bd d0 ca f6 bb
       -0.06963089 -0.016531158 -0.057990402 -0.0075315014
000220 48 77 ce bc 49 4b 1a bd 2e c0 a4 3a e0 50 74 bc
       -0.025203362 -0.037669454 0.0012569481 -0.01491186
000230 96 b5 40 bc 88 4a b0 bb 55 df cf bc 02 e0 87 bd
       -0.011762043 -0.0053799786 -0.025375048 -0.06634523
000240 c0 63 a8 3c 1c 33 d9 bc 82 13 a2 bd de 7a 2d bd
       0.020555377 -0.026513629 -0.07913877 -0.042353503
000250 35 8e 83 bc cb ee ca bc 72 69 f1 bb a3 f8 54 3a
       -0.01605902 -0.024772068 -0.0073673064 0.0008124208
000260 26 d0 4c bd d5 79 25 bd be c0 31 3b 84 75 15 3d
       -0.050003193 -0.04039939 0.002712294 0.036489025
000270 d7 50 39 bd c2 2e 90 bc 6c ab 9f bc ab a9 2d bd
       -0.04524311 -0.01760042 -0.01949092 -0.042398136
000280 4d 22 1c bd 45 a4 00 bd 81 59 0c bd 93 64 47 bc
       -0.03811865 -0.03140666 -0.034265045 -0.012169975
000290 75 3b 52 bd 3a d5 09 3d 99 4f 88 b8 37 01 09 bb
       -0.051326234 0.033650614 -6.4998116e-05 -0.0020905265
0002a0 52 e5 e0 bc db f5 8b bc 7a 96 da bc f3 36 c7 3d
       -0.027453098 -0.017085006 -0.026683081 0.097272776
0002b0 df c0 e6 bb f9 9a 14 bc ca 34 1e bd 3f de db 3c
       -0.007042035 -0.0090701515 -0.038624562 0.026839374
0002c0 fd 61 fa bc 41 c8 83 bc 11 65 56 3d 64 60 a6 bb
       -0.030564303 -0.0160867 0.05234248 -0.0050774086
0002d0 13 da 36 bd ba 68 13 bd 2c 63 4d bd 84 0b 37 bc
       -0.044641566 -0.035988547 -0.050143406 -0.011172179
0002e0 cb d2 ac bd 34 af eb bc 3d 91 56 bc f5 8c 40 bd
       -0.08438643 -0.028770067 -0.013096151 -0.047009427
0002f0 43 09 e6 bc d3 f3 b6 bc 13 82 70 bd d5 6a 33 bd
       -0.028080588 -0.022333061 -0.0587178 -0.043803055
000300 3b 9e 23 bc 6b e1 cf 3a 5b ce d5 3b a2 39 37 bd
       -0.009986456 0.0015860026 0.0065248436 -0.044732697
000310 2b 17 43 bd 4c da 4e 3c dd e2 43 3c 03 2e 48 bd
       -0.047629517 0.012625288 0.011955944 -0.048872005
000320 d0 de 21 bc ee 9f e0 bc c3 1c 04 ba 2f 01 20 bd
       -0.009879783 -0.02742001 -0.0005039686 -0.03906363
000330 a4 b1 39 bd 99 f0 15 bd f4 79 32 bd 7e 38 9c 3b
       -0.045335427 -0.036606405 -0.043573335 0.0047674766
000340 4a 76 47 bb 80 07 39 bb 5a 1c 25 bd 8e 59 de bc
       -0.0030435496 -0.002823323 -0.04031024 -0.027142312
000350 9c 8e 9b bc e1 cc 3c bd d7 f2 19 bd 15 08 27 bc
       -0.0189889 -0.046093825 -0.037585106 -0.010194798
000360 9a 49 cd bc 9e 02 91 3c 58 fc 9f bb c4 3a 31 bd
       -0.02505951 0.017701443 -0.0048823766 -0.043268934
000370 1a 5f 0d bd 49 a8 68 3b c0 d8 e8 3a b2 09 3b bd
       -0.034514524 0.0035500696 0.0017764792 -0.045663543
000380 2b 5f 74 ba 3a a5 d7 bc e2 9d e1 bc 65 65 cd bc
       -0.00093220425 -0.026323903 -0.027541105 -0.025072763
000390 13 43 e7 bb a2 54 03 bd 2a 73 8f bd 77 81 a4 bb
       -0.0070575564 -0.032063134 -0.07004388 -0.005020316
0003a0 46 5a a3 bc db 93 ce bc dd cb 9b bd 71 ac de bb
       -0.019940507 -0.025216987 -0.07607243 -0.006795459
0003b0 af 1c 85 bd a3 da 82 3c da f9 18 bd ad 1f d1 bb
       -0.064996116 0.015973395 -0.037347652 -0.00638195
0003c0 54 bd bd bc 41 21 01 3b 90 9e a0 bc 4a 74 ac 3b
       -0.023161568 0.0019703659 -0.019606858 0.005262886
0003d0 68 86 fa bc 3f 5a 19 bd d7 e3 7e bd 3c ec 40 bc
       -0.030581668 -0.03743958 -0.062229004 -0.011775073
0003e0 b2 5e 33 bd 31 df 12 3c 5e a6 c8 3b 74 eb a6 bd
       -0.04379148 0.008964346 0.006123348 -0.08150378
0003f0 81 b5 09 bc a5 ca 3c bb 60 21 bf bc 37 cd e8 bc
       -0.00840509 -0.002880731 -0.023331344 -0.028418167

fc1.bias f4 [256]
000000 90 52 29 bc 44 d6 be 3c 8c 62 72 3b 17 01 23 bd
       -0.010334626 0.02329553 0.0036985008 -0.03979596
000010 2b a5 74 3c 81 a5 e3 3c 92 cf 70 3c f2 0b 24 3d
       0.014931957 0.02778888 0.014697926 0.040050454
000020 f2 a2 f2 bc f8 1c 19 bd bc 70 a4 3c 6f 87 aa 3c
       -0.029618714 -0.037381142 0.020073287 0.020816533
000030 0f 45 5d 3c 4c 49 c2 3b 24 fa d8 3a b8 1e f5 bc
       0.013505234 0.005929148 0.001655404 -0.029921874
000040 fc d5 db bb 6b d2 1d 3d c9 27 8f 3c d9 7c d0 bb
       -0.0067088585 0.03853075 0.017475026 -0.0063625393
000050 8b 85 99 bc 7e 9c c1 3c 34 80 55 bd 9f 64 63 bc
       -0.018740436 0.023634192 -0.052124217 -0.01387897
000060 3f 66 d0 bb 58 9f c0 bd 32 b0 71 3c e6 43 d9 bc
       -0.006359845 -0.094053924 0.014751481 -0.026521634
000070 e0 fa d1 bc 0b 67 df 3c a0 76 bd bc 13 d0 12 bd
       -0.025632322 0.027270814 -0.023127854 -0.035842966
000080 b6 1b 34 3c a7 c0 48 bd 26 c3 a4 3c 97 6f b8 3b
       0.010992935 -0.049011853 0.020112585 0.005628537
000090 91 c8 29 bd e1 61 55 3c a1 0a 14 bd ab 5c b2 bd
       -0.04145104 0.013023824 -0.03614295 -0.08709081
0000a0 83 52 48 b8 13 a2 8c bc b3 d1 52 3c 22 30 a4 3b
       -4.776056e-05 -0.017167127 0.012867379 0.0050106207
0000b0 4c 9f 55 3c 9c e6 b5 bc 86 54 8c 3a 17 99 e3 bc
       0.013038468 -0.02220469 0.0010706342 -0.02778296
0000c0 9f 4c 3f bd 22 b3 93 3c 79 89 96 3c 2b 56 fd bc
       -0.04670393 0.018029753 0.018376099 -0.030924877
0000d0 42 b2 6a bc f5 e2 83 bc 13 09 23 bc c3 4b e2 3c
       -0.014324727 -0.016099432 -0.009950894 0.027624017
0000e0 6b 2a 3f bc 2f 17 de bc e3 bc 0e 3c 04 1f ec 3a
       -0.011667828 -0.027110664 0.008712026 0.0018014614
0000f0 d2 65 0b bd f5 7a c2 bd 43 de d2 bc 2d 9a 02 bd
       -0.03403265 -0.094961084 -0.025740748 -0.031885315
000100 4a 15 17 3c 7b df b2 bc 00 4d 26 bd c5 ad f8 bb
       0.009221384 -0.02183508 -0.040600777 -0.0075890743
000110 dd fc 47 3c 55 00 af 3b 95 52 27 bd 78 d1 95 bc
       0.012206283 0.0053406158 -0.04085024 -0.018288359
000120 b7 75 4a bd ee 4d 89 bd 27 c5 13 bd 2c 47 fe bc
       -0.049428668 -0.06704317 -0.03607669 -0.031039797
000130 ba b5 0e bb 44 84 24 bd 70 11 06 3c 99 f6 b4 bc
       -0.0021775798 -0.0401652 0.008182868 -0.022090243
000140 b9 88 87 3c d4 7c ef bc 10 9b cd bb 7d 80 e3 bc
       0.016544687 -0.029234327 -0.0062745884 -0.027771229
000150 03 cd aa 3b d3 0e 25 bd 45 aa 18 bc 92 d8 5f bd
       0.0052124276 -0.04029734 -0.009317939 -0.054649897
000160 35 04 12 bc ac 84 3f bd 54 ee 7b 3c 47 a1 94 3c
       -0.008912136 -0.046757385 0.015376646 0.01814331
000170 f7 1e a1 bc 75 0b 2a 3c be 99 0c 3d 10 6f 70 bd
       -0.019668086 0.010378708 0.034326307 -0.058699667
000180 76 85 b8 bc 60 df de 3a 6a f9 02 bd 3b 7b 10 bc
       -0.022524577 0.0017003827 -0.03197614 -0.008818443
000190 2e 03 80 bb b0 ce aa 3c b6 c3 ba 3c 12 63 af 3c
       -0.003906629 0.02085051 0.0227984 0.021409545
0001a0 d9 3a 3e bc 1d 54 20 bd ad 2b 3a 3b 6e d8 06 3c
       -0.01161071 -0.039142717 0.002840738 0.008230312
0001b0 86 82 9b bc ef c8 46 3c 62 d7 15 bd 0b e9 78 bc
       -0.018983137 0.012132867 -0.03658236 -0.0151922805
0001c0 7a 7d a9 3b a9 ac c9 bc c8 42 23 bd 13 b9 12 bd
       0.0051724287 -0.024618464 -0.03985861 -0.03582103
0001d0 85 43 36 bb bd 42 47 3c c2 da 1b bc 45 8f d3 bb
       -0.002781124 0.012161908 -0.009512605 -0.006456288
0001e0 26 0d c4 bc fe 99 e6 3b da b5 16 3c b2 38 5e 3b
       -0.02393205 0.0070374003 0.00919863 0.0033908305
0001f0 49 87 01 3c 34 d4 f5 bc 09 93 48 3d 6f 91 46 bd
       0.00790579 -0.030008413 0.04896835 -0.04847854
000200 8f 7c 43 3c 39 d1 9c bb ae 5b 44 3c b4 5a 6c bd
       0.011931553 -0.0047856835 0.011984749 -0.05770369
000210 08 86 b8 bc be 18 89 bc 86 c8 93 bc 1b 93 ef 3b
       -0.022524849 -0.01673543 -0.018039953 0.0073112375
000220 a9 f4 e4 bb 87 9f 3e bc 58 a9 09 bd 7e 1f 76 3d
       -0.0069871736 -0.011634714 -0.033608764 0.060088627
000230 52 5e 11 3c 85 4c 09 bd 70 0c 70 bc 06 c2 dc bc
       0.008872585 -0.03352024 -0.014651403 -0.026947986
000240 e1 c8 a3 3c a8 21 90 bd 61 6f 68 bc e3 67 2c bb
       0.019993247 -0.070376694 -0.014186711 -0.0026307038
000250 d9 4e bb bb 41 a3 fb bc 84 c1 27 3c 01 e6 2a bd
       -0.0057161865 -0.030717494 0.010239009 -0.041723255
000260 a7 7f 0f b8 5f 46 3f bd f2 d7 7e bc 34 0f ce 3c
       -3.4212742e-05 -0.04669797 -0.015554415 0.025153734
000270 c3 fa 0c 3d c8 c7 f6 bc 4f a6 eb bc 90 fc 07 bd
       0.034418833 -0.03012456 -0.028765826 -0.033199847
000280 1a 9f 7d 3b f5 9f a6 bc 23 ee 5b bb 73 be 76 3a
       0.0038699568 -0.020339945 -0.0033558689 0.00094125344
000290 76 2c 64 bc 95 89 af bd 25 0c 05 bd 42 94 95 bc
       -0.013926616 -0.085711636 -0.032482285 -0.018259171
0002a0 1d 47 8f 3c c7 16 e1 bc 6e cd e5 bb 39 39 5d bc
       0.017489964 -0.027476681 -0.0070130145 -0.0135024125
0002b0 55 ef ac bc bf 38 1d 3c 0f 06 f7 bc bd 40 60 bb
       -0.021110216 0.009596049 -0.030154256 -0.0034218275
0002c0 51 43 a6 bb 5d 25 c2 bc 72 eb 3c bc f7 19 ae bc
       -0.0050739427 -0.023699457 -0.011530744 -0.021252615
0002d0 ad fd ba bc f5 01 ae bc 2e de 01 bd 3c a9 ce bc
       -0.02282604 -0.021241168 -0.031706028 -0.025227182
0002e0 40 31 0a 3c 0c 36 b9 bc f0 18 fc bc 18 d6 5d bb
       0.008434594 -0.02260878 -0.03077361 -0.0033849534
0002f0 3c 0f d5 3c 1b 47 62 3c 4d ba 15 3c ea c7 b3 bc
       0.02600824 0.013810898 0.009138656 -0.021945912
000300 37 80 ad bc 1c 0d ef bc a5 70 48 3c a2 22 06 3d
       -0.021179302 -0.029181056 0.012233888 0.032747872
000310 c1 f5 03 3d c5 83 f5 ba 1f 10 ce bc dd 4b 0b bd
       0.03221679 -0.0018731287 -0.025154172 -0.034007896
000320 48 10 07 bc 60 8a 0a 3a 45 40 57 3c 6f df c9 bc
       -0.008243628 0.00052849017 0.013137882 -0.024642674
000330 ce da 8e bd 1b b7 67 3b 9a 32 27 bc 31 de a4 bc
       -0.069753274 0.0035356942 -0.010204935 -0.02012548
000340 64 e4 c4 3c 29 62 4e bc 5a f0 9f bc 93 da 02 bd
       0.024034686 -0.012596645 -0.019523788 -0.03194673
000350 66 12 76 bc d2 2f f1 bc 57 22 f3 bc ff ce 61 bc
       -0.015019035 -0.029441748 -0.02967946 -0.013782262
000360 b7 b2 13 bd 5f 8d d6 bc 2f 39 e4 bb 12 dd 26 bc
       -0.036059108 -0.026190458 -0.0069648246 -0.010184543
000370 f0 c5 55 3b 5d c2 2b 3c 85 0a b9 3b f5 1c df 3b
       0.00326192 0.010483352 0.005647006 0.006808872
000380 d2 88 0e 3d 6f 2a a2 3b 96 5d 30 3c 9a 28 24 bc
       0.03479845 0.004948906 0.0107645 -0.010019446
000390 48 15 37 bd 66 79 a8 bc e5 ef 78 3c 6c 20 3a bc
       -0.04469803 -0.0205657 0.015193914 -0.011360269
0003a0 00 6b 43 bc 03 e1 72 3c 0b 39 ff bc 11 6b 93 bc
       -0.011927366 0.014824155 -0.03115513 -0.01799539
0003b0 21 e7 f0 bc 57 fb d7 bc 74 00 02 3d ce 9b 47 bd
       -0.029407086 -0.026364965 0.031738713 -0.04873257
0003c0 21 b7 aa 3b 26 d4 80 bc a1 5c 9b bc df 86 c2 bb
       0.005209819 -0.01572616 -0.018965067 -0.005936488
0003d0 ab 98 48 bd 1b 34 12 3d 72 a2 a1 3c e1 0d fb 3c
       -0.04897372 0.035694223 0.01973078 0.030646266
0003e0 f9 9c 80 bc 0c d3 14 3c 56 43 c8 3c e7 ea 81 bc
       -0.01569985 0.009083521 0.02444617 -0.01585908
0003f0 2f ed b6 bc 2f d0 82 3d e4 d0 a6 bc a4 6a 17 bc
       -0.022329895 0.06387364 -0.020363279 -0.009241734

bn1.weight f4 [256]
000000 a4 90 8d 3e 1d 20 f7 3e c3 15 90 3e 4b eb ee 3e
       0.27649415 0.48266688 0.28141603 0.4666389
000010 c3 ca c5 3e 51 5b 01 3f f9 0c cd 3e f2 cc c7 3e
       0.38631257 0.5052996 0.4004896 0.39023548
000020 e3 a9 8e 3e a6 98 76 3e fd 01 d9 3e 7c 1f e2 3e
       0.27863988 0.24081668 0.4238433 0.44164646
000030 22 80 cc 3e 84 ea bc 3e 48 3a 3d 3f e5 e5 37 3f
       0.39941508 0.3689767 0.73917055 0.71835166
000040 b7 f2 27 3f 94 ce e5 3e 75 a6 e0 3e dd 77 28 3f
       0.6560473 0.4488417 0.43876997 0.65807897
000050 fd bb ff 3e a4 bf d6 3e fa 48 d2 3e 58 af c5 3e
       0.4994811 0.41943085 0.41071302 0.3861034
000060 b2 62 50 3f c7 65 9c 3e ce bb 53 3e a6 d5 0c 3f
       0.814006 0.305464 0.2067711 0.550135
000070 23 0f 46 3e b1 07 a8 3e 6d 0b f1 3e c7 14 d0 3e
       0.19341712 0.32818368 0.4707903 0.40640852
000080 7a c2 79 3f 7d 6c 62 3e 41 6c 35 3f f8 e6 ac 3e
       0.9756237 0.22111697 0.7086831 0.33769965
000090 da 6e 5c 3e 91 d3 04 3e 88 43 e4 3e 69 b6 40 3e
       0.21526662 0.12971331 0.44582772 0.18819584
0000a0 ff 65 12 3e 67 8f 0c 3f b0 c3 d1 3e 6a 93 f9 3e
       0.14296721 0.54906315 0.4096961 0.4874528
0000b0 a9 dd aa 3e fc e4 f3 3e f7 6f c2 3e 89 ca 15 3f
       0.33372238 0.4763564 0.37976047 0.5851217
0000c0 5d b2 8d 3e a7 bc b2 3d d1 93 74 3f 4b d5 c9 3e
       0.27675143 0.08727389 0.9553805 0.39420542
0000d0 16 9e 54 3e 50 36 02 3f 2d 4c 14 3f 4e 7f ce 3e
       0.2076343 0.50864124 0.57928735 0.403315
0000e0 4e 03 ae 3e a1 5e 2e 3f 57 a0 9e 3e 27 2e d7 3e
       0.33986896 0.6811314 0.30981705 0.420274
0000f0 e2 7f 0f 3f 32 39 f1 3e b7 de 9c 3e 3d e3 a7 3e
       0.5605451 0.4711395 0.30638668 0.32790557
000100 b3 4c a0 3e 84 62 a3 3e 7a 3d b8 3e 46 6e d4 3e
       0.31308517 0.319111 0.35984403 0.41490382
000110 da f5 95 3e 1c 30 ba 3e b4 ee 1e 3e a4 18 30 3e
       0.29289132 0.3636483 0.15520746 0.171969
000120 7d e2 7d 3e cd 88 a3 3e 16 5f 1c 3e 65 71 b4 3e
       0.2479343 0.31940308 0.15270647 0.35242763
000130 87 36 5f 3e 18 69 50 3e 14 a4 62 3e ed 0b 03 3f
       0.21798144 0.2035259 0.22132903 0.5119007
000140 d0 b7 c4 3e fc ba 93 3f 88 58 c3 3e f3 79 b4 3d
       0.38421488 1.1541438 0.3815348 0.088123225
000150 59 e6 c7 3e 22 43 5f 3e 34 0f 68 3e d4 c3 d3 3e
       0.3904293 0.21802953 0.2266205 0.41360343
000160 ba aa 40 3e 09 f3 04 3f 70 e6 a1 3e ff fa bf 3e
       0.18815127 0.5193334 0.31621122 0.37496182
000170 a6 29 b4 3e ca e2 3c 3e ff 51 b7 3e 65 7b c2 3e
       0.35188025 0.18445888 0.35804746 0.37984768
000180 84 45 06 3f 8e dc b1 3e cc eb 93 3e 2b 41 0e 3f
       0.5244982 0.34738582 0.28890836 0.5556819
000190 74 6e 36 3e df 07 ee 3e 04 24 d0 3e ed fe 93 3e
       0.17815572 0.4649038 0.40652478 0.2890543
0001a0 60 ce 19 3f 4f e1 b4 3e ad e4 f9 3e 0d 60 a7 3e
       0.6008053 0.35328147 0.48807278 0.32690468
0001b0 04 e1 f0 3e 84 3c 0e 3f 6b 24 88 3e f9 8a 08 3f
       0.47046673 0.5556109 0.26590285 0.53337055
0001c0 76 4c 82 3e ff c8 56 3e df 19 b2 3e d9 03 1f 3e
       0.2544896 0.20975111 0.34785363 0.15528812
0001d0 d6 7c 38 3f 5d 13 d1 3e 33 a4 74 3e 7d 79 99 3e
       0.72065485 0.40835086 0.23890762 0.299755
0001e0 fc 8d c1 3e 04 2d 8a 3e 6a be 18 3e 3b 7f aa 3e
       0.37803638 0.2698747 0.14916387 0.33300194
0001f0 4b 26 f4 3e 65 6b 84 3e af ef d8 3e 19 ec b3 3e
       0.47685465 0.25863186 0.42370364 0.35141066
000200 3e 62 04 3f da ba d8 3e 7a 75 2a 3f ee f8 b2 3e
       0.51712406 0.42330056 0.66585505 0.34955543
000210 e3 93 cf 3e 26 ff d0 3e 0e e1 f5 3e bc 15 bd 3e
       0.40542516 0.40819663 0.48023266 0.36930645
000220 b8 ff bf 3e b3 56 04 3e 19 37 67 3e bb c2 0e 3f
       0.37499785 0.12923698 0.22579612 0.55765885
000230 2c 0a 6d 3e b7 c8 94 3e 2e 24 23 3f 86 95 11 3f
       0.23148412 0.29059383 0.6372708 0.5686878
000240 3c ca e6 3e 7b 3e 92 3e 48 ce a8 3e ff 1e c2 3e
       0.45076168 0.28563294 0.3296988 0.37914273
000250 6b 35 77 3e a5 f3 b5 3e 9d 3d 0f 3f 9f 7d b0 3e
       0.24141471 0.3553745 0.5595339 0.3447084
000260 04 eb 87 3f 65 61 28 3d 23 75 cc 3e 19 62 7a 3f
       1.0618596 0.041108508 0.39933118 0.97805935
000270 3f 59 ea 3e c4 67 82 3f 28 20 f1 3e 81 0c e7 3e
       0.45771214 1.0187917 0.47094846 0.45126727
000280 49 8d a1 3e 1a a3 ba 3e 28 d8 91 3e 01 4c a5 3e
       0.31553105 0.36452562 0.28485227 0.3228455
000290 6c 60 c6 3e 19 a4 7d 3d 3b 4f 15 3f ca 9b b8 3e
       0.3874544 0.061924074 0.5832402 0.36056358
0002a0 01 bb a1 3e 89 80 cb 3e b3 29 83 3e c3 be 1a 3f
       0.31587985 0.39746502 0.2561775 0.6044733
0002b0 b0 77 a4 3e 7f 7d 01 3f 71 57 70 3e 19 07 2f 3f
       0.32122564 0.50582117 0.23470856 0.68370205
0002c0 c9 02 a9 3e c4 4d 68 3e a0 34 60 3f 9a 44 b2 3e
       0.33009937 0.22685915 0.875803 0.34817964
0002d0 39 8e 8a 3e 86 51 c3 3e 64 3e c9 3e e0 a0 25 3f
       0.27061632 0.38148135 0.39305413 0.646986
0002e0 31 93 d1 3e 0e 85 b5 3e 57 65 74 3e 68 b5 90 3e
       0.4093261 0.35453075 0.23866783 0.28263402
0002f0 36 32 df 3e 79 bf 22 3f 54 24 fd 3e 69 81 00 3f
       0.43592995 0.63573414 0.4944178 0.50197464
000300 b4 18 9d 3e ef 89 94 3e ec 91 2d 3f a1 ad 80 3e
       0.3068291 0.29011485 0.67800784 0.25132468
000310 b6 07 b5 3e 6f a4 1f 3e 14 16 a8 3e 4a 39 0f 3f
       0.35357445 0.1559007 0.32829344 0.5594679
000320 7e f1 91 3e 8b 74 b7 3d 93 16 3f 3f b4 8e c8 3e
       0.28504556 0.08957776 0.7464382 0.39171374
000330 8e af 95 3e 0f 1c b5 3e 90 30 59 3e e8 be 2a 3e
       0.292355 0.3537297 0.21209931 0.16674387
000340 77 85 a0 3e 4f 61 28 3f 01 48 0f 3f e5 36 38 3f
       0.31351826 0.6577348 0.55969244 0.7195876
000350 e1 38 56 3e 09 7a 5d 3e 04 1b e4 3e 7d e1 b2 3e
       0.20920135 0.21628584 0.4455186 0.3493766
000360 d7 7f bd 3e 67 73 b2 3e d7 df e2 3e fb dc 9a 3e
       0.37011597 0.3485367 0.443114 0.3024672
000370 ab b8 25 3e 5d 2a dd 3e 49 f3 bf 3e f3 86 14 3f
       0.16183726 0.43196383 0.374903 0.58018416
000380 ca 54 db 3e 42 aa 0a 3f 32 ff 16 3f 8d 3b 73 3e
       0.42838126 0.5416604 0.5898315 0.23753186
000390 3a c3 9a 3e 23 9e af 3e 24 cc 94 3e 07 4a 15 3f
       0.3022707 0.34300336 0.29061997 0.5831608
0003a0 36 08 85 3e 37 a2 53 3f 65 57 2f 3f 8e 25 d2 3e
       0.25982827 0.82669395 0.6849273 0.41044277
0003b0 8a 29 d0 3e 99 9f f5 3e 80 17 9f 3e 8d 25 e8 3e
       0.40656692 0.47973326 0.31072617 0.4534115
0003c0 e9 09 2a 3f e1 5d 19 3e a1 a1 b7 3e 56 54 8c 3e
       0.6642137 0.14977218 0.358655 0.27408093
0003d0 76 ee cb 3e bf 52 fe 3e 21 56 c3 3e 93 5d 9e 3e
       0.3983037 0.49672505 0.3815165 0.30930766
0003e0 2c d8 7a 3f f1 0f 8b 3e ee e7 b1 3e c9 c2 6a 3f
       0.979861 0.271606 0.3474726 0.9170347
0003f0 d2 29 31 3f 1d 54 03 3f f7 86 ab 3e 96 f3 50 3e
       0.6920444 0.5130022 0.33501408 0.2040542

bn1.bias f4 [256]
000000 99 43 cd bc 5a 10 dc bb fc a0 12 bb 3c be d2 bc
       -0.025056647 -0.0067158164 -0.0022373786 -0.025725476
000010 cd e2 cb 3c 69 b5 08 bc 3a 9c c1 bb 24 21 98 3c
       0.02488842 -0.008344033 -0.0059085162 0.01857049
000020 5f ed 54 bb da be aa bb 7b 65 9d bc 94 e7 55 bd
       -0.0032490117 -0.0052107396 -0.019213429 -0.052222803
000030 9f 5c 57 3d 98 68 22 bd e3 c7 db 39 c3 c7 01 bd
       0.052578565 -0.03965053 0.00041919862 -0.03168465
000040 7b 71 42 bd bb 4d 36 3d 1e 02 b4 bc 16 11 46 bd
       -0.047471505 0.044507723 -0.021973666 -0.04835614
000050 f5 2f 5a 3d 39 d5 a9 bc 6b 99 44 3c f4 45 97 bc
       0.05326839 -0.020731555 0.011999468 -0.018465973
000060 76 9b d8 bc 50 94 6c bc 53 d9 da 3b 80 d9 23 bd
       -0.026441317 -0.014439657 0.006678739 -0.040002346
000070 5c ed 9f bc d2 c2 03 bd d7 91 fb bb 87 08 2a bc
       -0.019522361 -0.032168217 -0.0076772976 -0.01037801
000080 91 12 0a bd 97 e7 9b bb 6f 03 1b 3d df 6a 8f 3b
       -0.033709113 -0.0047578323 0.03784507 0.0043767537
000090 35 4a 5e bd 14 93 a2 3c 4b 9f b9 bc 6c c5 c1 bc
       -0.054269988 0.019845523 -0.022658965 -0.023653708
0000a0 a3 dd d5 3b 61 80 7d 3c 14 25 dc bb ef b5 83 3b
       0.0065266653 0.015472502 -0.0067182872 0.004019491
0000b0 04 3b ae 3b a6 63 9e bd 69 b0 04 3d 74 1c 4d bd
       0.005317094 -0.0773385 0.0323948 -0.050075963
0000c0 48 3c a0 bc 94 02 07 3d 44 14 65 bc b4 93 77 3a
       -0.019559994 0.032961443 -0.0139818825 0.0009444312
0000d0 de ec 12 b8 39 24 ca bc 97 2b 17 bd e5 68 96 38
       -3.5029712e-05 -0.024675475 -0.036906805 7.1720955e-05
0000e0 95 2d 9a bc ba cd 51 3c 4e 60 2a 3c 2c 1d b0 3c
       -0.018820563 0.012805397 0.010398937 0.021498285
0000f0 64 af d6 bc 05 11 67 bd 3e 5f 54 bc 24 4b 3b 3d
       -0.02620668 -0.056412715 -0.012962161 0.045725957
000100 db 0e c4 bc ec 7e ae bb ed 63 36 ba 41 7f 1e bd
       -0.023932865 -0.005325189 -0.0006957639 -0.038695578
000110 47 85 61 bc f5 7e c1 bc cb 3b 8c bc a5 c2 aa bb
       -0.013764686 -0.023620108 -0.017118355 -0.0052111917
000120 b8 35 f4 bc b8 38 3b bc 4a 42 dc bb b6 ec af bb
       -0.029810771 -0.011427097 -0.0067217695 -0.0053687943
000130 51 99 8e bc f1 1c 68 bd 5b bc 6f 3a 3c b7 ae 3a
       -0.017407091 -0.056668226 0.00091451936 0.0013329755
000140 bd e9 6c 3d 92 33 d4 bc 49 80 b9 bb 42 bb 30 bb
       0.057840098 -0.025903497 -0.0056610447 -0.0026967083
000150 50 26 09 bd bc 04 49 bd 46 4f e3 bc 9f 97 88 bc
       -0.033483803 -0.04907678 -0.027747761 -0.016673861
000160 0e 91 c0 bc d2 5b 3c bd 46 53 47 3c 1d 07 91 bb
       -0.023506667 -0.045986004 0.01216585 -0.004425897
000170 ed 76 0b 3c 96 14 30 3a 8b ad c8 3c b5 59 81 bd
       0.008512241 0.0006716935 0.024496814 -0.063159384
000180 d6 3c a0 3c 53 e7 91 3c 5e 55 f8 bc 19 13 7d 3d
       0.019560259 0.0178105 -0.030314144 0.06178579
000190 fe 29 cd 3a 3e be 70 3c 42 46 fc 3b d7 a4 19 bc
       0.0015652773 0.014693795 0.007698805 -0.00937768
0001a0 05 cf 21 bd fd 9a ac bc 44 d4 23 bd 5b 39 43 bd
       -0.03950407 -0.021069998 -0.039997354 -0.04766212
0001b0 e3 8b ab bc 9f 91 6c 3b e2 0c 8a bc e0 4b 92 3b
       -0.020940727 0.003609754 -0.016851846 0.0044646114
0001c0 6b b5 42 bc 4c e9 d0 3a 49 b2 bb bc 93 ee 69 3c
       -0.011884074 0.0015938669 -0.022912161 0.014278072
0001d0 33 01 91 3c 35 69 8c bc 2b 6b 6d bd f7 c2 e4 bc
       0.017700767 -0.01714001 -0.05796353 -0.027924998
0001e0 ff d5 97 3b 43 e0 52 bc 19 c1 f6 bb 29 f6 52 bc
       0.0046336646 -0.012870851 -0.0075303433 -0.012876072
0001f0 ab 9a 00 3d 44 ee d1 3c 97 4c 31 3c 95 4d a0 3a
       0.031397503 0.02562631 0.010821483 0.0012230152
000200 6f af 01 3b e4 3a ee bc f4 05 a8 3c e6 e8 94 bc
       0.0019788404 -0.029080816 0.020510651 -0.01817746
000210 f7 90 b5 bc 85 e3 e8 39 d7 69 bb bc 8d 54 0d bd
       -0.022163851 0.00044420004 -0.022877617 -0.034504462
000220 26 83 9e 3b 7a b3 f6 3c f8 8c 90 bc 58 6a b2 3c
       0.0048374115 0.030114878 -0.017645344 0.021779224
000230 98 57 98 bc fb 42 ef bc 2c bd a2 3a 6f 8e 2a bd
       -0.018596455 -0.029206743 0.0012415997 -0.04163974
000240 4f a1 d2 3c f7 ab c8 bc de d8 de 3c 72 9c b7 3c
       0.025711684 -0.024496062 0.02720302 0.022413466
000250 c9 01 09 3d e1 db d7 3b 77 b0 f8 bc 0e 1d 86 b9
       0.033448968 0.006587491 -0.030357582 -0.0002558012
000260 25 bf 1d bb ab 9e 2d b9 14 a3 f7 bc 90 5b cc bc
       -0.002407023 -0.00016557674 -0.030229129 -0.024946004
000270 69 9a bb 3c 25 cd f9 bc 08 67 72 bd 7d 1a c6 3b
       0.022900777 -0.030493328 -0.05918029 0.006045638
000280 53 0d c6 3a d1 ec a0 bc f2 9a 01 bd 74 2a 32 3c
       0.0015110172 -0.019644173 -0.031641908 0.010874379
000290 b3 28 b8 3c 38 15 c3 bb 14 d5 28 bd a8 bf 85 bb
       0.022480344 -0.005953457 -0.041218832 -0.004081685
0002a0 97 22 b8 3c ae 55 d4 bc ed c1 ef bb dc 15 1a 3c
       0.022477431 -0.025919762 -0.007316819 0.009404626
0002b0 be 1f 07 3c 23 9a 71 bc 6c 0a c6 3b 16 f3 9f bd
       0.008247314 -0.014746222 0.006043723 -0.07810037
0002c0 6e 78 21 bb a1 58 25 bc 5a 90 38 bd f3 f3 11 bd
       -0.0024638432 -0.010091932 -0.04505954 -0.03563304
0002d0 26 6f f0 bc 35 a0 ee bc 4f dd 9f 3b 27 69 55 bd
       -0.029349875 -0.029129127 0.004878677 -0.052102234
0002e0 99 50 03 3d 23 72 8d bb 7b 76 37 bc b0 1e 5a bc
       0.032059286 -0.0043165847 -0.011197682 -0.0133129805
0002f0 e7 fc 02 bc d3 6d 24 bd b3 cb 19 3b 82 f2 2c bc
       -0.007994867 -0.0401438 0.0023467361 -0.010555865
000300 f4 de 95 bc 00 13 32 bc 5d 2c 75 bc 8b 51 73 3c
       -0.018294789 -0.010868788 -0.01496419 0.014850984
000310 12 d7 ac bc c2 c7 5e bb e5 55 1a 3d 5e 08 3e bd
       -0.021098647 -0.0033993577 0.03767957 -0.0463947
000320 2d a7 49 bc 27 8a 91 bb ec 58 37 bd 73 c0 1e bd
       -0.012307924 -0.004441518 -0.044762537 -0.038757753
000330 52 5a c1 bb de 29 09 bd ef 26 07 bc f4 77 3c bd
       -0.0059006596 -0.033487193 -0.008249029 -0.046012834
000340 49 a0 a2 3c 40 1b 80 3c 65 29 0c bd 42 1d f1 3c
       0.01985182 0.015637994 -0.034219164 0.029432897
000350 2c 08 8a bc e5 a2 44 bc 09 8b b6 3b 1f da 88 3c
       -0.0168496 -0.012001728 0.0055707735 0.01670557
000360 30 ce 34 bc 4c 11 88 bd b9 8d d8 bc c0 0e c6 bc
       -0.011035487 -0.06643924 -0.026434766 -0.024176955
000370 a1 a7 ac bb 5f 8b bc bc e6 cf 75 bb c7 bf b4 3c
       -0.0052690064 -0.023015676 -0.003750795 0.022064103
000380 12 88 38 3d 2c a0 ab 3c 66 ce bc bb 94 03 37 bc
       0.04505164 0.0209504 -0.0057619093 -0.011170287
000390 c4 0b 91 b9 01 98 1e bd 23 42 a7 3b 90 08 ed bc
       -0.0002766532 -0.03871918 0.0051043197 -0.028934747
0003a0 5e 90 7c bc e5 4c 8b 3c 8e 78 81 bc b6 3c 51 3c
       -0.015415279 0.01700444 -0.015804555 0.012770822
0003b0 87 9d dc bb a9 68 3c bd 2f 34 da bb cf ac 59 bc
       -0.006732646 -0.04599825 -0.006659053 -0.01328583
0003c0 16 1d ad 3c e6 d5 2b bb df b2 19 bd d7 3c be bc
       0.021132033 -0.0026220023 -0.0375241 -0.02322237
0003d0 0c 56 7d bd 92 1f 6d 3d a9 32 d4 bc 1b 87 09 bc
       -0.06184964 0.057891436 -0.025903063 -0.008394028
0003e0 42 a4 87 3c cf 36 e5 3c f7 cd 9d ba 7e 4b 1a bd
       0.016557816 0.027980236 -0.0012039532 -0.03766965
0003f0 af ae 01 bd a9 20 d7 3c 83 67 99 bb 76 b7 17 3d
       -0.031660732 0.02626069 -0.004681529 0.037040196

bn1.running_mean f4 [256]
000000 2e 1f 7e 40 ab d5 cf bf ca 21 85 c0 fb 23 e1 3f
       3.970653 -1.6237081 -4.1603746 1.7589105
000010 b1 54 55 3f b5 75 b1 c0 ce bf 66 3e 1e e2 7a 3f
       0.83332354 -5.5456185 0.22534105 0.9800128
000020 18 e5 7e 3f d2 14 84 c0 58 ac 94 3f e5 9c 4f 40
       0.9956832 -4.1275415 1.1615095 3.243951
000030 de 00 9a c0 71 e7 5a 3f 00 dd ad 3f 02 64 0b bf
       -4.812606 0.855094 1.3583069 -0.54449475
000040 5e 6d e0 3d 28 d5 81 be a7 52 7f 40 b9 05 3d 40
       0.1095836 -0.25357938 3.9894197 2.9534743
000050 6a cc ce 3d 73 8a 56 40 2a 14 a8 bf 99 75 39 40
       0.10097583 3.3522003 -1.3131154 2.8978026
000060 2d 47 42 c0 da 71 8b bf ad ea 81 bf 13 6c 24 40
       -3.0355942 -1.089412 -1.0149742 2.5690963
000070 b7 05 3d 3f f5 71 ce bf 04 ee b1 3f 92 f8 87 3e
       0.73836845 -1.6128527 1.3900762 0.26556832
000080 e0 43 d4 bf 1d e0 ab c0 6a 02 f1 3e 67 1b 92 3f
       -1.6583214 -5.3711076 0.47072154 1.1414613
000090 88 60 bc 3f 7d c7 87 bf d1 a9 e0 3e a5 88 62 c0
       1.4716959 -1.0607754 0.4387956 -3.5395901
0000a0 f2 78 8f c0 2a 39 29 3f fb 43 63 3f 3e da 11 c0
       -4.483514 0.6610285 0.88775605 -2.2789454
0000b0 7d 4e 99 3f 00 46 c0 3f 93 4a 9a 3f 9a 33 f7 3e
       1.1977078 1.5021362 1.2054008 0.48281556
0000c0 4b 6c 33 40 f7 84 e1 c0 20 ea 28 3f 2e 30 9a 3f
       2.8034847 -7.047481 0.65982246 1.2045953
0000d0 5b 30 47 bf 87 8c 3c bf ec b1 4d 3f 0a 6b a4 be
       -0.7780816 -0.7365193 0.8034961 -0.32112914
0000e0 0f f9 91 3f e5 6b 0b 3f 8e d9 92 3f cc 3f 30 40
       1.1404132 0.5446151 1.1472642 2.7538939
0000f0 41 99 be 3f cb 2a e8 be 75 91 c4 3e 18 58 75 c0
       1.4890519 -0.45345148 0.38392225 -3.8335018
000100 d3 3a c9 3e 7b bf 86 3f 81 a7 e5 3e 09 bb 0c 3f
       0.39302692 1.0527185 0.44854358 0.54972893
000110 f1 a4 5c bf 29 1d 01 bf 5e 1d 4d 3f 12 53 c4 be
       -0.8618918 -0.5043512 0.80122936 -0.38344628
000120 cb 96 69 3f a1 ac 9e 3f 82 a5 f6 3f 76 9e 1b 3f
       0.91245717 1.2396432 1.9269259 0.6078867
000130 4b 88 8c c0 fb 88 5e be 9f 86 f1 3f 7d de c7 be
       -4.3916373 -0.21731941 1.8869208 -0.39036933
000140 d1 33 97 3f 15 44 c3 c0 52 e7 91 c0 56 8c 89 3f
       1.1812688 -6.102061 -4.5594873 1.0745952
000150 1d 7c ce bf d1 8b 65 3f 0b b7 bc 3f b3 3c a5 3f
       -1.6131626 0.8966647 1.474336 1.2909149
000160 95 16 43 3f 98 d4 2a 3f 33 d4 df 3e e3 54 93 3e
       0.7620633 0.6673064 0.43716583 0.287757
000170 c4 c2 ec 3e ee 8a 41 40 7e c9 9e 3e 57 c6 23 3f
       0.46242344 3.0241046 0.310131 0.6397452
000180 b8 1c af 3e 54 74 58 c0 f8 10 a2 3f db a1 ad 3f
       0.34201598 -3.3821 1.2661428 1.3565019
000190 01 f1 2e c1 27 69 6f 3c 64 a6 ad 3f 8b b5 68 be
       -10.933839 0.014612473 1.3566403 -0.22725503
0001a0 4e b7 9b 3f 55 94 94 3f 55 69 23 3f de 8c b3 3f
       1.2165315 1.1607767 0.638326 1.4027364
0001b0 79 b1 32 bf 42 30 7e 3f dd 66 6a bf fa 39 f1 be
       -0.6980205 0.99292386 -0.91563207 -0.47114545
0001c0 5c 87 28 be 64 0c 06 40 88 18 3f c0 49 1d 02 40
       -0.16457886 2.0945063 -2.9858723 2.0330374
0001d0 56 18 f9 3f 32 9d 9c bf 27 84 06 40 62 8d 11 bf
       1.9460552 -1.2235472 2.101816 -0.5685636
0001e0 dd f8 f4 bf 37 0a a1 3f f5 f0 25 3f b5 40 58 40
       -1.9138447 1.2581242 0.64820796 3.3789494
0001f0 e3 1f 04 c0 ba bf 91 3f 67 30 66 bf 52 cc a1 c0
       -2.0644462 1.1386635 -0.89917606 -5.0561914
000200 66 e2 8f c0 94 5e d5 be cd f2 f5 3f 10 74 70 40
       -4.4963865 -0.4167372 1.9214722 3.757084
000210 9e ab 39 c0 36 2d 3d 40 a5 a3 5e c0 ce f2 2c 3f
       -2.9010997 2.9558845 -3.478738 0.6755799
000220 d9 7e cc 3f 14 98 3e c0 35 73 1d 3e d9 be 16 40
       1.5976211 -2.978032 0.15375979 2.3553984
000230 db d4 66 c0 dd d5 0b 40 e1 9e f0 bf 1f a6 a9 3e
       -3.6067417 2.1849282 -1.8798486 0.33134553
000240 90 83 15 c0 1d a4 0b c0 b3 9c fb 3f 5c 8f 56 3f
       -2.336155 -2.1818917 1.9657196 0.838125
000250 1b 58 64 3f c9 b6 aa 3e 70 e1 4c 3f 5a 0b f1 3f
       0.8919694 0.3334258 0.8003149 1.8831589
000260 6c 1d 58 3f 49 58 57 3f bf 1b 70 3f 81 a0 62 c0
       0.84419894 0.8411909 0.9379234 -3.5410464
000270 a8 30 99 bf 76 15 b1 3f 66 72 2b 40 da 5f 53 3f
       -1.1967974 1.3834674 2.6788573 0.8256813
000280 b8 c1 0f bf 48 ee 96 bf 82 68 bb c0 e3 14 63 be
       -0.56154966 -1.1791468 -5.8565073 -0.22175936
000290 ed 07 ce 3f 59 6b 42 40 0f 85 65 bd d4 d7 06 c0
       1.6096169 3.037802 -0.056035098 -2.106923
0002a0 a7 7d 3a 40 d3 29 af 3f 50 5d e0 c0 12 6c cf 3f
       2.9139192 1.3684639 -7.0113907 1.6204855
0002b0 a5 44 41 3f 94 66 b8 be fa 8f 6a c0 3c 22 ea 3f
       0.7549537 -0.3601576 -3.6650376 1.8291698
0002c0 00 4c ba bf 94 43 22 c0 c6 ed ac 3f 69 b5 92 bf
       -1.4554443 -2.5353746 1.3510063 -1.1461612
0002d0 9b 9b 0a 3d 10 ee 36 40 96 b9 0c bf e2 9c db 3f
       0.033839803 2.8582802 -0.5497068 1.7157252
0002e0 34 ba 32 3f 19 89 06 40 c6 78 df 3f c3 59 b7 3f
       0.69815373 2.1021178 1.7458732 1.4324268
0002f0 d1 3b 9f c0 62 00 3c bf e3 d5 91 c0 8f 89 06 40
       -4.976052 -0.73438084 -4.557359 2.102146
000300 c9 12 06 40 9c 7c 44 c0 20 98 8f 3f 33 08 d1 c0
       2.0948966 -3.0701056 1.12183 -6.532251
000310 4b d7 6d 3f 60 49 06 3e 43 05 97 be 95 40 f6 bf
       0.92906636 0.13113928 -0.29496202 -1.9238459
000320 2d 6b 97 3e 47 d7 69 3f 94 9f 91 bf 45 75 c2 3f
       0.29573956 0.9134411 -1.1376824 1.5192038
000330 3c 96 53 40 8a 0a 51 40 7b a2 be 3e 4f ef c7 3f
       3.3060446 3.2662683 0.37233338 1.5619906
000340 4f db 8a 40 e2 10 50 3f 47 f6 94 be 3a 94 53 c0
       4.339271 0.8127576 -0.29094145 -3.305922
000350 79 b7 84 3f cf 45 79 c0 f0 e9 9a 3f cc 2b db 3f
       1.0368491 -3.8948858 1.2102642 1.7122741
000360 54 ec 8c be a0 6f 06 40 79 7a be 3f cf 1d 4e 3f
       -0.27524054 2.100563 1.4881126 0.80514234
000370 4e ac 33 bf 0d ae 1b c0 ee c4 d6 3f 6c 8b dd bf
       -0.7018479 -2.4324982 1.6778848 -1.7308173
000380 09 26 7c 40 d8 47 83 bf 32 4e 00 40 2b 92 94 3f
       3.9398215 -1.02563 2.0047727 1.1607107
000390 79 5d c6 3e 75 01 b4 bf 4e f9 c9 be e5 a1 53 bf
       0.3874319 -1.4062945 -0.39448017 -0.82668906
0003a0 d1 16 a6 3f 03 40 37 c0 84 46 3c 3f 73 0f 58 3d
       1.2975713 -2.863282 0.735451 0.05274911
0003b0 8a f7 dd bf 22 1b af 3f ee 76 fb 3f 0e 7c 29 3f
       -1.7341168 1.3680155 1.964567 0.6620492
0003c0 d6 96 5e 3e 96 61 90 bf 4c 37 7a 3f 56 ea fe 3f
       0.21737227 -1.1279781 0.97740626 1.9915264
0003d0 3c d9 e8 c0 a3 49 2d 3e 59 de 0a c0 4e 9a 69 3f
       -7.276518 0.16922621 -2.169821 0.91251075
0003e0 6a fd 99 3f 0c 30 74 40 10 30 87 c0 7f be 30 40
       1.2030461 3.8154325 -4.224617 2.761627
0003f0 4e 83 e0 3f ec 96 01 40 83 bc ed 3d 7e 58 20 3f
       1.7540071 2.0248365 0.116082214 0.6263503

bn1.running_var f4 [256]
000000 06 38 ba 41 de bc ba 40 cd f1 ec 40 05 91 d5 41
       23.277355 5.835555 7.4045167 26.69581
000010 3e e4 37 41 71 c0 c1 40 a2 84 50 40 5c 9f 8a 41
       11.493223 6.0547414 3.2580953 17.327812
000020 55 48 86 40 8e 5c 85 41 3f 6a 82 40 2f 94 51 40
       4.1963296 16.670193 4.0754695 3.2746694
000030 0e fb 2f 41 06 8d b8 40 01 f2 94 40 be 06 71 40
       10.998793 5.767215 4.6545415 3.7660365
000040 c9 33 1b 40 40 18 4a 41 6f 31 46 40 47 bf e5 3f
       2.4250357 12.63092 3.0967672 1.7948998
000050 43 1d fe 40 13 14 5c 41 cd 4f ab 41 d1 0c b7 3f
       7.941072 13.754901 21.413965 1.4300786
000060 28 a1 58 40 4b 48 af 41 a7 4f b6 41 fc 67 8c 41
       3.3848362 21.9103 22.788893 17.550774
000070 c1 d5 87 41 aa 97 17 41 7a d0 5a 3f a2 d7 de 40
       16.979372 9.474527 0.8547436 6.9638224
000080 eb c3 0a 40 a4 6e fa 40 7a 51 e3 40 b8 7d 36 40
       2.168208 7.826006 7.103696 2.8514233
000090 dc 1c 8c 41 af cb fd 40 7d ea e8 3f 57 42 6a 40
       17.514091 7.9311137 1.819656 3.660299
0000a0 29 b0 43 41 a7 c5 66 40 b5 3b f7 40 46 b8 87 40
       12.230508 3.6058137 7.7260385 4.2412443
0000b0 32 a8 ae 40 82 d9 6d 40 c6 ee cb 40 4b b9 40 40
       5.4580317 3.7164006 6.372897 3.0113094
0000c0 50 47 37 41 e8 43 c2 40 74 17 82 3f 09 6d 4a 41
       11.45491 6.0707893 1.0163407 12.65162
0000d0 4a e2 02 42 67 9a 97 41 23 9e 57 41 67 83 7b 41
       32.720985 18.950392 13.476108 15.719581
0000e0 e8 2f 24 42 fc 71 fd 40 93 9b 40 41 f6 16 01 41
       41.046783 7.920164 12.037982 8.068106
0000f0 3a af 28 40 3b e8 3f 41 7a d1 e8 40 48 82 6e 40
       2.635695 11.994197 7.275571 3.7267017
000100 73 3e 2c 41 91 45 73 40 6e 9b e9 40 9d e5 83 40
       10.765246 3.801121 7.3002234 4.121779
000110 8d 08 0c 3f 38 b8 88 40 ca 6f 89 41 e4 04 1b 41
       0.5470055 4.2724876 17.179585 9.688694
000120 fd 55 9d 40 5c 73 ec 40 ff 5d d4 40 7c 1b 9e 40
       4.9167466 7.389082 6.636474 4.940855
000130 51 37 2a 41 11 7f af 40 e1 4c 56 40 c1 e2 ac 41
       10.638505 5.484261 3.3484423 21.61072
000140 c7 5b 0b 40 9a bc 36 40 04 a1 19 41 02 b1 f8 40
       2.1774766 2.8552613 9.60181 7.7716074
000150 a7 a2 13 41 1e 1f 2a 42 81 e2 65 41 83 7e 52 41
       9.22721 42.530388 14.367799 13.155887
000160 ed 2a 9c 40 c5 a3 8b 40 76 46 ad 40 7b 5a 80 41
       4.88024 4.3637414 5.414851 16.04418
000170 b6 a0 f4 40 4b f0 8c 41 0e 87 9c 40 32 0e 98 41
       7.644618 17.61733 4.891486 19.006931
000180 aa 24 46 40 5d 71 c7 40 d5 cf e0 40 c8 6b ba 40
       3.0959878 6.2325883 7.02537 5.825657
000190 84 d0 12 41 f5 8b 0e 41 81 52 c2 41 5e 36 2f 41
       9.175907 8.909169 24.290285 10.950773
0001a0 f7 b8 a7 40 7f b4 9f 40 82 bc 01 41 de 79 a1 3f
       5.2413287 4.990783 8.108522 1.2615316
0001b0 f0 62 22 41 a0 5f 5d 41 4b c3 0f 41 a1 58 9d 3f
       10.149155 13.835846 8.985179 1.2292672
0001c0 c6 ba 98 41 83 39 33 40 1c 80 8b 41 5d c4 b4 3f
       19.091198 2.8003852 17.437553 1.4122425
0001d0 0d 55 02 41 68 de c6 40 4b 03 a6 40 c7 d9 bb 3f
       8.145764 6.214649 5.187902 1.4675835
0001e0 1c 90 1f 42 12 f6 32 41 07 83 7b 40 17 f5 b1 41
       39.89073 11.185076 3.9298723 22.244673
0001f0 0c cb 3c 40 d0 ad 3d 40 78 d5 7b 41 1c 33 f4 40
       2.949893 2.9637337 15.739616 7.631239
000200 72 8b fd 3f 5a 1c 31 41 b1 8d 4b 41 23 f5 10 40
       1.980818 11.069422 12.722093 2.264962
000210 8c 76 50 41 12 dd 06 42 b1 63 1e 41 9f c2 1d 41
       13.028942 33.71589 9.899339 9.860015
000220 c1 d8 2a 40 4b 8e e6 3f 71 8f 8d 41 af 13 19 41
       2.6694796 1.8012174 17.69504 9.567306
000230 20 34 8b 40 c3 42 60 41 60 38 50 40 67 ea fe 40
       4.350113 14.016299 3.2534409 7.9661136
000240 80 f5 12 41 a4 99 12 41 4e 7b 52 40 fb 94 82 40
       9.184937 9.16251 3.288776 4.080686
000250 ab 5f a2 40 29 8d 2a 3f 8d 78 12 41 ba a1 2f 41
       5.074178 0.66621643 9.154431 10.976984
000260 6e c5 d8 40 82 5f 8c 41 1b c7 9e 40 05 df 91 40
       6.7741003 17.546635 4.961805 4.558474
000270 a3 ee 44 41 76 25 91 41 31 76 2f 40 61 82 cf 3e
       12.308261 18.143291 2.7415888 0.4052916
000280 c3 b8 3b 41 45 cc 24 41 d6 10 34 40 ce c5 df 40
       11.732608 10.2998705 2.8135276 6.992896
000290 9c 2a 1c 40 1e 0d f9 40 35 65 9b 3f 0b d0 1d 40
       2.4401007 7.782851 1.2140261 2.465823
0002a0 97 34 57 41 f4 fe 34 40 11 ed ad 40 b5 c2 04 40
       13.450339 2.828061 5.435189 2.074384
0002b0 83 11 81 41 4a fb c0 40 67 0b b2 40 cb 6c 05 41
       16.13355 6.030675 5.563892 8.339061
0002c0 62 81 d8 40 6b ec 32 40 ce 14 29 40 ad 82 25 42
       6.765794 2.7956798 2.6418948 41.377613
0002d0 0e 33 5a 41 87 2a 64 40 0b a3 1e 40 e2 cf 15 41
       13.637465 3.5650957 2.4787014 9.363253
0002e0 97 fb f1 40 5f bd be 3e e4 ae ed 41 d4 40 d2 40
       7.5619617 0.37253854 29.710396 6.5704136
0002f0 3a c2 00 41 bb 7e 83 3f 73 b0 18 41 8f 13 10 40
       8.047419 1.027305 9.543078 2.2511938
000300 d1 09 aa 40 fb 68 98 40 31 eb 14 41 f5 2e d1 3f
       5.3136983 4.762815 9.30742 1.6342455
000310 68 fc 28 41 96 a3 71 40 14 4c c7 40 00 cb c1 3f
       10.561623 3.7756095 6.228037 1.5140076
000320 53 2d ee 41 95 03 df 40 97 ee 0e 3f 32 e0 7a 40
       29.772131 6.9691873 0.5583281 3.9199338
000330 8c 7d 43 41 d7 7b 88 41 1a dd 17 41 45 be 37 41
       12.218151 17.060469 9.49148 11.4839525
000340 03 63 13 41 4c 91 cc 40 7e 36 31 40 ce fd dd 40
       9.211673 6.3927364 2.768951 6.937232
000350 45 93 2e 41 d4 4e 25 40 6c 22 8c 40 70 3b 86 41
       10.910954 2.5829363 4.379202 16.779022
000360 6c 3f cb 3f 70 5c e1 3f 6e 77 db 3f d3 2b 5b 41
       1.587873 1.7606335 1.7145822 13.698199
000370 c4 19 01 40 1e 47 f7 40 ff 6c 51 41 7b 94 34 3f
       2.0171976 7.7274313 13.08911 0.70539063
000380 7c d1 ba 41 b1 a4 1a 40 a2 29 79 41 1c 08 08 40
       23.352287 2.416302 15.572664 2.125495
000390 db 7d e9 40 b1 bf c8 40 93 43 98 40 1e a9 68 3f
       7.296613 6.2734 4.758249 0.9088305
0003a0 99 41 66 41 47 0b 01 40 4e d4 78 40 53 f2 d9 3f
       14.391015 2.0163133 3.887958 1.7027076
0003b0 6c 6c 24 41 a7 98 56 40 d0 f0 5d 40 e8 a1 0c 40
       10.27647 3.3530672 3.467823 2.197382
0003c0 b8 27 a0 3f a7 e0 e2 3e df 18 f4 3f 5b 37 1f 41
       1.2512121 0.4431202 1.907009 9.9510145
0003d0 4a 59 c8 40 f1 ef 95 40 30 dc fe 3f f4 a0 3f 41
       6.2608995 4.6855397 1.9910946 11.976795
0003e0 e5 cc af 3f bd ad 69 40 19 87 20 41 f7 dc dc 3f
       1.3734404 3.6512291 10.032983 1.7254933
0003f0 ba d0 c2 40 ef b1 6c 41 b2 23 04 40 cb 97 98 40
       6.0879793 14.793441 2.0646787 4.7685294

fc2.weight f4 [128, 256]
000000 06 75 09 bd dd 65 81 3d 44 ce 82 bc fe 5c 6a bc
       -0.033558868 0.06318257 -0.015967496 -0.014304398
000010 ef b6 04 3c b2 85 a5 3c af 84 2f bd 30 f7 2b 3c
       0.008100255 0.020205352 -0.042851146 0.010495946
000020 7f 88 17 bd 81 83 63 bd f2 1a 06 3c 02 07 b3 3d
       -0.036995407 -0.055545334 0.008185135 0.08741571
000030 d4 af 9e bc f1 3c 19 3d f8 f2 0d bd 06 c0 09 3d
       -0.01937095 0.037411634 -0.03465554 0.033630393
000040 57 41 b6 3d 16 dc 30 bd 15 82 b8 3c a9 93 81 bc
       0.08899181 -0.04317864 0.022522965 -0.01581748
000050 b9 e0 cd 3c 2b 51 47 3d 23 2c 2d 3c 40 0a 1a bd
       0.02513157 0.048661392 0.010569605 -0.03760743
000060 3f d9 e9 bc 34 45 61 3c cf 34 b4 3b 22 eb 95 bc
       -0.028545974 0.0137494095 0.0054994593 -0.018300597
000070 d7 87 b8 3c 1e 57 90 bd 71 40 83 bc c5 2e b4 3d
       0.022525711 -0.07047866 -0.016021939 0.08797983
000080 6d a0 17 bd 1d 6b e5 3c f2 6e 79 3d 83 ee 72 3c
       -0.03701823 0.028005177 0.06089682 0.014827373
000090 a2 66 23 3d 54 f4 15 bd 30 ca 93 3c 9b ea 42 bd
       0.0398928 -0.036609963 0.018040746 -0.04758702
0000a0 b4 d1 54 3c d8 45 74 bd b3 c2 46 3d af e1 25 3d
       0.01298945 -0.05963692 0.048525523 0.04049843
0000b0 f5 8b fe 3b 97 20 21 bd 6b 0c 9a 3c 9e 71 a2 3c
       0.007768149 -0.03933772 0.01880475 0.019829568
0000c0 08 68 43 bc 47 e4 83 bb a9 43 81 be 07 d3 5a 3c
       -0.011926658 -0.0040250155 -0.25246933 0.013355977
0000d0 eb 54 1f 3d fc 04 20 3b a3 90 01 bd ce 9c c9 3c
       0.038899343 0.0024417033 -0.031632077 0.024610903
0000e0 ea a7 1d 3b 7e eb a5 3c ba 89 8d 3c 0d d2 e1 3c
       0.0024056383 0.020253893 0.017277587 0.02756598
0000f0 33 73 a6 3b 4c d0 30 3d ea 00 8e bd 89 0f 33 3d
       0.005079651 0.043167397 -0.06933768 0.043715987
000100 d3 4e f9 3c 25 8f 34 bd 8a d8 11 3d ed f9 6d 3d
       0.030433094 -0.044081826 0.0356069 0.058099676
000110 1a 1f 4c 3c 36 fd 52 3a 93 fa b8 bc cf 71 f0 3b
       0.012458587 0.00080485956 -0.02258042 0.007337786
000120 39 13 32 bd ab 87 83 3d b8 dc b8 bc 88 e0 23 3d
       -0.043475363 0.06422361 -0.022566184 0.04000905
000130 92 46 34 3d f3 fb e9 bb ee c2 27 bc c6 9c ac 3c
       0.044012614 -0.0071406304 -0.010239346 0.02107085
000140 eb 1a 21 bd 46 ba 53 be 24 09 cf 3b 04 2b 6d 3d
       -0.03933231 -0.20676526 0.0063182283 0.05790235
000150 d5 7a e8 3d 87 0e d6 bc dc 82 ca bc 5c f0 20 3c
       0.11351553 -0.026129974 -0.024720602 0.009822931
000160 7a 5d 09 3d 34 4f f5 ba 8a 81 40 3d 6c ba 04 bd
       0.03353641 -0.0018715621 0.046998538 -0.03240435
000170 c3 e7 04 bd 2a 98 ec 3b 37 7b 64 3a 5b 26 26 3d
       -0.032447588 0.007220288 0.000871587 0.040563922
000180 4f 80 3b bd 48 e7 12 bd 5f 6b e2 3d b8 ee 22 3c
       -0.04577666 -0.0358651 0.11055636 0.00994461
000190 79 5c 8e 3d 21 96 42 bd 0e 66 7a 3d 0c 85 94 bc
       0.069512315 -0.047506455 0.061132483 -0.018129848
0001a0 fb 75 75 3d 61 92 79 3d cd 74 92 bc 85 b3 a2 3d
       0.059926968 0.060930613 -0.01787796 0.07944397
0001b0 aa dd ff 3b 4a c9 fe bc ed c8 81 3d d5 38 3a bd
       0.007808407 -0.031101841 0.06337152 -0.045464355
0001c0 36 16 3c bd ea 13 8d 3c a7 60 b4 3d 85 d4 fd bd
       -0.04591962 0.01722141 0.088074975 -0.123940505
0001d0 f6 ba aa bb 80 e7 8e bc 7a 7f 6c bd 39 f5 9c 3d
       -0.0052102758 -0.017444372 -0.05773876 0.0766396
0001e0 a6 82 85 3d 7a 2a 82 3c a7 72 d6 3c e2 67 b8 3d
       0.0651906 0.015889395 0.026177717 0.09004189
0001f0 68 93 c5 bc d7 d4 90 3c f0 76 c0 bb e1 b4 65 3d
       -0.02411814 0.017679615 -0.0058735535 0.056080703
000200 fe 12 46 bd a8 8a 06 bd e5 8e 62 3d 6a 0b bf 3a
       -0.048357956 -0.032847077 0.055312056 0.0014575545
000210 1b 52 01 bd 12 79 c8 3c 56 27 cb 3c e6 4a 29 bc
       -0.031572443 0.024471793 0.02479903 -0.010332799
000220 65 5e 1c 3d 53 91 cb 3d 39 cf aa 3c f1 14 d0 bc
       0.03817596 0.09939828 0.020850765 -0.02540061
000230 50 d8 9b bd fa 20 db 3b 70 dc fb bc 2f 80 71 3c
       -0.07609618 0.0066872807 -0.030744761 0.014740034
000240 60 b1 59 3c 32 fe 3a bd c3 2c b2 3c f4 5a 9f ba
       0.013286918 -0.045652576 0.02174986 -0.0012157843
000250 c6 95 1a 3d 22 49 a1 3c cd 62 be bc 72 44 6c bd
       0.03774049 0.019688193 -0.023240471 -0.057682462
000260 43 28 1c bd b4 8f cb 3d 3c d5 88 3d ed cf 97 bd
       -0.038124334 0.099395186 0.06681296 -0.074127056
000270 4b cb 28 3d a0 c1 7a 3a ef 73 40 bd 47 2d 3d 3d
       0.0412095 0.00095655955 -0.046985563 0.046185758
000280 f1 52 43 3c 74 c0 a3 3d d6 e2 32 bc 7e 41 29 3d
       0.01192163 0.07995692 -0.01091834 0.041322224
000290 f5 0b bc bc f8 f7 7d 3d b2 ce 88 bc 92 35 b3 bc
       -0.02295492 0.06200406 -0.016700123 -0.02187613
0002a0 89 1c 0f 3d 48 6a a3 3c af e9 5c 3d 63 a4 63 3c
       0.034939323 0.01994814 0.053933796 0.013894173
0002b0 cb 3f 39 3d 01 67 26 3d bb c4 94 3d 03 93 93 3d
       0.045226853 0.040625576 0.07264086 0.07205775
0002c0 96 12 0e 3d de d8 ed bc d8 1a e6 bd b5 dc 82 3d
       0.034685694 -0.029034074 -0.11235589 0.06389753
0002d0 c8 d3 2a 3d 7f 8c c5 bb af 71 e4 bc b3 42 ff bc
       0.041705877 -0.0060287113 -0.02788624 -0.031159734
0002e0 d7 55 1e bd 14 c2 b7 3c d5 ea 9b 3c 05 40 fa 3d
       -0.038656082 0.02243141 0.019032875 0.12219242
0002f0 15 fb c2 3c b1 28 77 3c 0f 8c 37 3d 79 54 a0 3c
       0.023801366 0.015085385 0.044811305 0.01957153
000300 6d 2f 86 bd 2d 6d 70 3a 74 cf 69 bd 00 12 a0 39
       -0.065520145 0.0009171542 -0.05708261 0.0003053099
000310 fe cd 84 3d 24 2a 48 3d 2f 2c e7 3c c4 fd 7d bd
       0.064846024 0.048868313 0.02821931 -0.062009588
000320 23 0a 9c 3d 99 d2 35 3d 29 bd 8f 3d 0a 5d ff 3c
       0.07619121 0.044390295 0.07018501 0.031172294
000330 d4 82 83 3d 1d b5 b2 3d aa 59 90 3d 93 91 2d 3d
       0.06421438 0.08725951 0.07048352 0.04237516
000340 5f 02 37 bd fa 14 44 bc 57 0e 6e bc ea 68 23 3d
       -0.044679996 -0.011967892 -0.014529786 0.039894976
000350 16 e4 b3 bc 66 5f 40 3d ea 7a 8c 3d 31 7e 26 bc
       -0.021959346 0.04696598 0.068593815 -0.010161922
000360 6e 0b c5 bb da 57 b9 3c 13 9b a5 bc f3 e0 9c 3d
       -0.0060133254 0.022624899 -0.020215547 0.07660093
000370 aa f1 97 bd b5 61 db 3c a7 17 87 3d 63 c2 f8 3d
       -0.07419141 0.026779989 0.06596308 0.12146451
000380 54 bb 27 3d d9 d5 1c 3d 98 e5 80 ba 58 a2 2e bd
       0.040950134 0.03828988 -0.0009834049 -0.04263529
000390 c1 ab 56 3d d3 fb 07 3c da 46 9d 3d c3 e9 42 3c
       0.05240989 0.008299786 0.076795295 0.011896553
0003a0 43 2b 4c 3d ca c5 8a 3c 9f 4e 10 3d 23 52 29 3c
       0.049845945 0.016940016 0.03523123 0.010334524
0003b0 da 64 2b 3d 05 dc 58 bd c2 1c 0c 3d 0c bd 6f 3c
       0.041844226 -0.052944202 0.034207113 0.014632475
0003c0 67 8d e8 3c 73 29 cc 3c 00 fe 69 bc 49 90 d1 bc
       0.028387738 0.024922108 -0.01428175 -0.025581496
0003d0 a6 4e e4 3c 2f 84 67 bd 20 10 92 bc 5f 40 48 bd
       0.027869534 -0.056522544 -0.017829955 -0.048889514
0003e0 00 b4 ec bd 4c 3c 84 bd d5 b2 85 bc 54 3c 46 3d
       -0.1155777 -0.06456813 -0.016320625 0.048397377
0003f0 6d c1 81 bc e0 aa f3 3c 49 e7 57 3d 08 e9 06 3d
       -0.015839303 0.029744565 0.052710805 0.03293708
