test_rl/bert_predictor_mask.pth (torch, 396400 bytes, 3 tensors)

fc1.weight f4 [128, 768]
00000000: 87fe e2bc a94f bfbb 8a4b 503d cb71 aabd
00000010: 7bad 3abd 88ae 08bb 3179 06bf 928a 81bd
00000020: 9d5a 9cbc 7553 ce3a f60d ae3c 7920 a5bb
00000030: 77ed 10bd b67d a73c 6b33 e7bc 1bb0 8c3d
00000040: 1320 b1bd cda7 21bd f1ab 033e 8cd9 b6bd
00000050: 4498 79bd f133 99bd a96a 07bb 6c78 edbd
00000060: a0a3 d6bd bf02 5abd d981 e43c 20b1 17be
00000070: 8186 1f3e 2cf9 d7bd 0618 aebd 77c2 003d
00000080: 3c66 94bd 8ee4 91bd d42f ed3c b6ae 893d
00000090: de62 d93d c329 7fbd 45de 39be 7817 dcbd
000000a0: e1f5 34bd e996 a439 e5bd 223d d0c6 0d3d
000000b0: 90ae 98bd 2714 d1bc dfce 81bd f383 9cbd
000000c0: 2c62 66bd 9173 843d 0992 8b3d 6dc7 9bbd
000000d0: 0151 be3b bb0c 8fbd 75a0 48bd 33e1 43bd
000000e0: dd11 883d bd8a e3bc 4df6 9ebd 0c95 35be
000000f0: d182 09be c5a7 be3d ccf6 60bd 6cf6 f7bd
00000100: 7e81 2cbd 7c9a 803d 62d5 6b3d 44a9 6837
00000110: 4818 eebd 8a0f 973c 1128 033c 692d 8ebc
00000120: 1141 03be c69c 87bd 8ab8 84bc 26e4 8a3d
00000130: cac4 733e 9429 5dbc fd5f e33d 2f23 8f3c
00000140: 4ca8 a23d f4a7 aebd f160 e5bc 33ce 28bc
00000150: b836 71bd 1e69 b1bc f747 85bd f29e 893a
00000160: 0d86 cc3c d953 56bd 00d2 29bd 7e23 cbbd
00000170: 4f48 743a 1461 a7bd d051 70bd 7a2c 7fbb
00000180: 8052 4a3e fc12 273e 2aca a23e aaa4 993d
00000190: d9a8 fbbc f203 39be f915 013e 922b 683d
000001a0: 1492 8eba 7102 6dbe ccc8 38be 5083 823e
000001b0: 7e4b 15bf 1e25 26bf 1054 29bf 71c3 633e
000001c0: bbd6 b73e 9f6a 4e3e fee6 96be 3e57 bd3e
000001d0: 2546 94be 3625 4fbe 1f10 fabd 72f6 1f3d
000001e0: 4af1 68bd 4240 08bc 2d0a 27bd c51f d6bd
000001f0: 9b62 89be 14e0 c6bd 30c1 9bbc 75f6 95be
00000200: aba7 a9bd 96f3 033e 0b26 f73e db14 0cbe
00000210: 0792 e1be fffe 19be 9279 9f3e c4ce dfbe
00000220: d6d0 53be 0387 823e 992e cb3c 0976 ad3d
00000230: f343 54bd 279b 50bd a45a 793e 2394 92bd
00000240: 43e1 b13d 378b 05bd 2748 89bd 664f 953d
00000250: 1d79 503d fa1f 793e 03c1 4dbd 271b 8cbc
00000260: c65c 04be f65a 11bc 4530 c9bd f974 8d3d
00000270: 9985 babb 9d5d 703d fcc2 c7bd 42a6 48be
00000280: 097d c7bd 52a8 b0bc 8a2c 7e3d 9d46 193e
00000290: 5e3d 6cbd 133f 86bd 69dd 82bc a079 21be
000002a0: 53d1 183e 72dd bcbc 446b a53f b3ef 343d
000002b0: 6d89 18bf 1051 d2bd 3f15 0abe 2656 8a3c
000002c0: 64a4 933d abe7 233e 1380 ed3d 70ad a93d
000002d0: e807 cbbd b5f2 0c3e 07a6 9cbd a88b 86bd
000002e0: e488 383d 69fd 303d 64be 5ebe e14f 0f3d
000002f0: b72e a93c bd35 803e a116 27be 2abc 243e
00000300: 1620 2a3e d25b 003e df77 843e f8d5 0dbe
00000310: 4a98 563e 5c5d 733e ebe9 e53d c7c7 6ebe
00000320: 6fa8 303e fcf7 a53d 93ef 5c3e b641 84be
00000330: e2e3 2dbe 7225 253e 7d1e 8d3e 3e3b 913d
00000340: c5df 173d 9a68 b23d 76f9 133d c5b5 abbd
00000350: 4201 71bd 80a7 0c3d f295 ec3c 1dde 093d
00000360: 58bd 2dbe 7bb3 bd3b e5f3 f23c 350f 213d
00000370: ee2d 15bd 8ba9 a63d 5d79 b8bd 5d67 803e
00000380: e465 7fbe b009 0dbd 8663 003e 74c8 ce3c
00000390: fe71 023e e80a 843c 7345 cb3e 779a 30bd
000003a0: d42d 3f3c 8cab 473e 7287 4a3e 7556 f73c
000003b0: ef98 95be 560e 87bd 83ff 633e 6719 453e
000003c0: f66b 6abd b5e7 173d cce5 103e 4bb2 22bd
000003d0: fd25 a83c 2bcb b13d dfca 5abd 2898 c63c
000003e0: 632c 273e 0b1b 0e3c c821 cb3d 7658 6f3d
000003f0: 20b2 533d 776c 08be ea36 133d 1066 38bd
-0.027709259 -0.0058383537 0.05085329 -0.083224855 -0.0455756 -0.0020855982 -0.52528673 -0.06325258
-0.019086177 0.0015741425 0.021246891 -0.0050392714 -0.035382714 0.020445686 -0.02822276 0.06869527
-0.08648696 -0.039466668 0.12858559 -0.089282125 -0.060936227 -0.0748061 -0.002066294 -0.11595234
-0.10480428 -0.053225275 0.027893947 -0.14813662 0.15578653 -0.10545573 -0.08500676 0.031435456
-0.07246062 -0.071236715 0.02895347 0.067227766 0.106145605 -0.062295686 -0.18151195 -0.10746664
-0.0441798 0.00031392954 0.03973188 0.03461343 -0.0745517 -0.025522305 -0.06338286 -0.07642355
-0.056245968 0.06467355 0.06814963 -0.07606397 0.0058079963 -0.0698485 -0.04898115 -0.04782219
0.06644032 -0.027776117 -0.07761822 -0.17732638 -0.13428809 0.09309343 -0.054922864 -0.12107548
-0.04211568 0.062794656 0.057576545 1.3867688e-05 -0.11625725 0.018440027 0.008005158 -0.017355638
-0.1281779 -0.06621699 -0.016201276 0.06781797 0.23805538 -0.0134986825 0.11102293 0.017472832
0.07942256 -0.08528128 -0.028000327 -0.010303068 -0.058890074 -0.02165657 -0.06507867 0.001049964
0.024966264 -0.052326057 -0.041460037 -0.09918879 0.0009318636 -0.08172813 -0.058671772 -0.0038936422
0.19758034 0.16315836 0.31794864 0.0750211 -0.030720161 -0.18067911 0.12606038 0.056682177
-0.0010877275 -0.23145463 -0.18045348 0.25490808 -0.58318317 -0.64900386 -0.66143894 0.22242524
0.35906014 0.2015786 -0.29473108 0.36980623 -0.28959766 -0.20229039 -0.12210106 0.039053388
-0.056870736 -0.0083161015 -0.04078119 -0.10455278 -0.26833043 -0.09710708 -0.019013017 -0.29289594
-0.08283933 0.1288589 0.48271212 -0.1367983 -0.44056723 -0.1503868 0.31147438 -0.43712437
-0.20685133 0.2549363 0.024802493 0.08469779 -0.051822614 -0.050929215 0.24350983 -0.07157161
0.086855434 -0.03260347 -0.06703215 0.07290535 0.050896753 0.24328604 -0.0502329 -0.017102791
-0.12926015 -0.008871784 -0.0982366 0.069070764 -0.0056921956 0.058683027 -0.09753987 -0.19594672
-0.097406454 -0.021564636 0.062054195 0.14968343 -0.05767571 -0.06554999 -0.015974717 -0.15769053
0.14923601 -0.023054812 1.292336 0.044173907 -0.59584695 -0.10269368 -0.13484667 0.016886782
0.072090894 0.16006343 0.11596694 0.08285034 -0.09913617 0.1376446 -0.07648855 -0.06569606
0.045052424 0.04321042 -0.21752316 0.034988288 0.020652158 0.25041 -0.16317226 0.16087404
0.16613802 0.12535027 0.25872704 -0.13851154 0.20956531 0.23766083 0.11226257 -0.23318397
0.17251752 0.0810394 0.21575765 -0.25831383 -0.16981462 0.16127566 0.27562323 0.07091378
0.037078638 0.087113574 0.036126576 -0.08384279 -0.05883909 0.034339428 0.028880093 0.03365909
-0.1696676 0.005789218 0.029657314 0.039321143 -0.036420755 0.081378065 -0.09007523 0.2507886
-0.24941212 -0.034433067 0.12537965 0.025242068 0.12738797 0.016118482 0.39701423 -0.04311606
0.011668641 0.19499034 0.19778231 0.030192593 -0.29218242 -0.06594531 0.22265439 0.19247971
-0.057231866 0.037086207 0.1415016 -0.039720815 0.020525927 0.08681329 -0.05341613 0.024242476
0.16325526 0.00867344 0.09918553 0.058433972 0.051683545 -0.13322626 0.035941042 -0.04501921

fc1.bias f4 [128]
00000000: edc4 1a3d fd6a 82bc d6a4 9a3c f3d5 10b9
00000010: d212 2bbd fe0a 02bd 4c52 9a3c b2a2 a4bc
00000020: 35c9 953c 66eb 14bd 00b8 fabc 3cad fdbb
00000030: d9ce 72bc 320c 473c 89d4 f8bc 1d51 193c
00000040: cd20 803b fb88 a5bc 9e5b 483a e3ce 48bd
00000050: 6a1b 063c 053e 00bc 0ab0 613c 2c96 3f3b
00000060: 80c1 4cbd c757 773a 3e85 de3b cecc cdb9
00000070: 1de4 04bd 42ad d8bc e417 82bc abe4 0cbd
00000080: 4b38 b4bc 9e96 003d 8dd9 113b ee99 c4bb
00000090: 69ea 7abc e95f 21bd e31a 07bc 55dd 9d3c
000000a0: 9f79 bcbc 0df5 88b9 4deb f3bb 89d3 7c3c
000000b0: 100c 67bc 0152 423c 8572 cd3c 51dc 893b
000000c0: 93ea 2fbd d80d b43b a1d3 c0bb 8177 bfbc
000000d0: d633 063d 933b b43c 172b 0f3c bdc6 f6bc
000000e0: c1da 9cbc 6c99 2abd 9ad5 d13c 8399 a1bc
000000f0: c4b6 713b 15d5 013d 05a7 793c 5e2a 20bd
00000100: fe32 a53c 32bc 96bb 132f ebbc 58c8 683c
00000110: 8c97 f43b cb9b c43c bba8 0ebc 0ec6 43bc
00000120: a44b 57bd fce9 413c 6422 cfbc da92 0dbd
00000130: c7e1 cf3c e6ed dabc e12a 0f3d 3675 39bc
00000140: 8f3d c0bc 8712 b7bc 9eab ae3b 1936 84bc
00000150: 6a91 9bbc 0743 e13b 6019 2c3c 85d3 d53b
00000160: 81ef 23bc afdb 353e a925 20bd 0c04 453c
00000170: b731 38bd e582 d03b 4050 97bc 9f50 da3c
00000180: f8ae a1bc c6f2 ffbc 5d59 9dbc a4a7 393e
00000190: 8dd8 c8bc 950c 153d 7c0a 2bbc 8b25 02bd
000001a0: 1d06 e6bc d3ea 653e c3ff 383d e802 0cbd
000001b0: cab6 193c e079 d53c d9a1 893c 02a2 cdbb
000001c0: ceb6 dabc c3ec 21bc 0a8e 2e39 c846 923b
000001d0: b289 063e 1f49 d9bc 92d5 8e3b 8b6a 2ebd
000001e0: e42c 19bd d42f 33bd 2a43 9e3b f502 93bc
000001f0: 90b7 da3c 6e60 b0bc 432f bfbc caca cdbb
0.03778546 -0.015920157 0.018877428 -0.00013812612 -0.041765995 -0.031748764 0.01883807 -0.02009711
0.01828442 -0.036357306 -0.030605316 -0.0077415984 -0.014819824 0.012148904 -0.030374782 0.009357718
0.00391016 -0.020206919 0.00076430466 -0.049025428 0.008185247 -0.007827287 0.013774881 0.0029233797
-0.049989223 0.0009435382 0.006790786 -0.00039253238 -0.03244411 -0.026449803 -0.015880533 -0.034397762
-0.021999499 0.03139364 0.0022254915 -0.005999795 -0.015314677 -0.039398108 -0.008246156 0.019270578
-0.023007212 -0.00026122518 -0.0074438215 0.015431293 -0.014101997 0.011860372 0.025079021 0.004207172
-0.042948317 0.0054948144 -0.005884603 -0.023372414 0.03276428 0.022001063 0.008738301 -0.030124063
-0.019147279 -0.04165022 0.025614548 -0.01972652 0.0036882618 0.03169735 0.015237574 -0.039102904
0.020165917 -0.0046000713 -0.02870897 0.014207922 0.007464355 0.02400007 -0.008707221 -0.011949075
-0.05256237 0.011835571 -0.025284953 -0.034563877 0.025376214 -0.026724767 0.034953002 -0.011319449
-0.023466853 -0.022347702 0.005330517 -0.016139077 -0.018990237 0.0068744454 0.010504097 0.0065254592
-0.010005833 0.17759584 -0.039098416 0.012024891 -0.044969287 0.00636326 -0.018470883 0.026649771
-0.019736752 -0.031243693 -0.01920765 0.18130356 -0.024517322 0.036388952 -0.010439511 -0.031774085
-0.028079087 0.2245286 0.04516579 -0.03418246 0.009381959 0.026059091 0.016800808 -0.0062754164
-0.026698496 -0.009883109 0.00016646847 0.004464004 0.13138464 -0.026524125 0.0043589557 -0.042582076
-0.037396327 -0.043746784 0.004829784 -0.017945746 0.026698858 -0.021530356 -0.023337966 -0.006280278

fc2.weight f4 [1, 128]
00000000: e179 7fbd 9edc 79bd 309c 403d 7417 3e3e
00000010: 6dd3 e2bb 1e21 3c3d cd8c a13d ff65 eb3b
00000020: 8294 70bb 9a63 b03e 2a66 eebc 6635 813b
00000030: 77ff 45bd 557a b9bd da4f 753d ae2b 9e3b
00000040: 940c 98bb 470f 38bd 1e74 11bd c131 273e
00000050: 0453 b4ba e220 77bd dd44 80bb e0e0 103e
00000060: ad31 533d c901 01bc a67e 063e 9192 ca3b
00000070: 5c6e 00bd 6b4b 903d e1ae d5bd cc6f 1d3e
00000080: 6b72 9c3c 53af a33b a8f5 023e bcbb 093d
00000090: 0e0e 343d 5cdf 66be 0a25 12bd 9623 e13d
000000a0: 1469 87bb 74e3 7dbd c6b4 8dbd dfb2 4cbd
000000b0: 1d22 073e bf39 4b3d fd17 d1bc 2ebc a4bb
000000c0: e4eb 013e 0c16 02bd b13b 423c 8023 7dbb
000000d0: 473d 3dbd fb44 90bd f1fd 8ebb 08f7 cb3d
000000e0: 34c1 9c3e 2816 823d 4529 a9bd b0e7 01bd
000000f0: ac7a 873d 2619 6a3d 1ee1 da3c a416 57bb
00000100: 4b3c 4abd ebc4 c23e 8a2d f13a 8b43 30bb
00000110: d59f 063e b7e9 043e cb08 abba 261f 233d
00000120: 1221 213c 02a7 953e 09f2 5dbc 5107 d43a
00000130: 8136 94bd bce8 0c3e ec47 26be e47c 173e
00000140: 0c19 e3bc 9663 5dbc 240b 6c3e 36ff 95b8
00000150: 9f88 2fbd 4c2a 0bbd b4ca 283c 4c2f 26bc
00000160: ec9d f93d 503d 9ebe 177a 553e 4de5 183d
00000170: a887 6abd 4823 3c3d d1db 863e 8c6d 363e
00000180: 8904 ff3e 0422 913d d99e 6cbd 52f7 bdbe
00000190: e7e0 fe3a 5038 cabd f816 50bd 05f4 b03a
000001a0: abec bbba d9bc c1be 45d1 4a3c 2366 c5ba
000001b0: b4e1 ed3c 8b58 f43c 670d 8fbd f1b3 27bd
000001c0: afc0 063c 91cb a93d 30e5 0ebe 4e05 723d
000001d0: 9e9a 523b 573a 1dbb ee78 593e 3a04 143c
000001e0: f3a3 993c 020c bbba 14aa 173e 51bb 823d
000001f0: 6e14 0f3d 4a58 593e 335a 6cbd 5bd2 733e
-0.062372092 -0.061001413 0.047023952 0.18563634 -0.0069221766 0.04593002 0.07888184 0.0071837897
-0.0036709611 0.3445099 -0.02910145 0.003943133 -0.048339333 -0.09056536 0.059890606 0.0048269844
-0.0046401713 -0.044936445 -0.03551113 0.16327573 -0.0013757651 -0.060334094 -0.003914459 0.14148283
0.051561046 -0.007873961 0.1313425 0.006182023 -0.031355247 0.07045635 -0.10433746 0.15374678
0.019097527 0.0049952655 0.12789023 0.033626303 0.043958716 -0.22546142 -0.035679854 0.109931156
-0.0041323993 -0.061984494 -0.069192454 -0.049975272 0.13196607 0.049615618 -0.025524134 -0.0050273156
0.12687641 -0.031759307 0.011855052 -0.0038625896 -0.046201017 -0.07044407 -0.0043637683 0.09959227
0.30616152 0.06351882 -0.08259825 -0.031715095 0.06615195 0.05715289 0.026718672 -0.0032819891
-0.049373906 0.3804086 0.0018400413 -0.0026895727 0.13146909 0.1297978 -0.0013048885 0.039824627
0.009834545 0.2922898 -0.013546475 0.0016176497 -0.07236958 0.13760656 -0.16238374 0.14793736
-0.027721904 -0.013512513 0.23051125 -7.1524104e-05 -0.0428549 -0.033975884 0.010302234 -0.010143112
0.12188324 -0.30906153 0.20847355 0.037328053 -0.057258278 0.045932084 0.26339582 0.17815226
0.49808148 0.07086566 -0.057768676 -0.37102753 0.0019445688 -0.09874022 -0.050803155 0.0013500458
-0.00143375 -0.37839392 0.012378995 -0.0015060346 0.029038288 0.029827377 -0.06984978 -0.04094309
0.00822465 0.0829078 -0.13954616 0.05908709 0.0032135616 -0.0023991072 0.21237537 0.009034211
0.018754935 -0.0014270546 0.14810973 0.06383384 0.034931593 0.21225086 -0.05770321 0.23810713
